Neural Network Tools for STM32 family v1.7.0 (stm.ai v8.1.0-19520)
Created date          : 2024-02-07 14:55:57
Parameters            : generate --name network -m E:/STM32_H7/STM32_mobilenet/uint8-float_mobilenetV2-0.35_acc0.972.tflite --type tflite --compression none --verbosity 1 --workspace C:\Users\al\AppData\Local\Temp\mxAI_workspace1927402747870010751561133418763635 --output C:\Users\al\.stm32cubemx\network_output --allocate-inputs --series stm32h7 --allocate-outputs

Exec/report summary (generate)
---------------------------------------------------------------------------------------------------------
model file         :   E:\STM32_H7\STM32_mobilenet\uint8-float_mobilenetV2-0.35_acc0.972.tflite          
type               :   tflite                                                                            
c_name             :   network                                                                           
compression        :   none                                                                              
options            :   allocate-inputs, allocate-outputs                                                 
optimization       :   balanced                                                                          
target/series      :   stm32h7                                                                           
workspace dir      :   C:\Users\al\AppData\Local\Temp\mxAI_workspace1927402747870010751561133418763635   
output dir         :   C:\Users\al\.stm32cubemx\network_output                                           
model_fmt          :   ss/sa per channel                                                                 
model_name         :   uint8float_mobilenetV20_35_acc0_972                                               
model_hash         :   3a26bec5ed65362b4e7172da0e79e7ac                                                  
params #           :   408,303 items (419.40 KiB)                                                        
---------------------------------------------------------------------------------------------------------
input 1/1          :   'serving_default_mobilenetv2_0_35_96_input0' (domain:activations/**default**)     
                   :   27648 items, 27.00 KiB, ai_u8, s=1.00000000, zp=0, (1,96,96,3)                    
output 1/1         :   'conversion_70' (domain:activations/**default**)                                  
                   :   15 items, 60 B, ai_float, float, (1,15)                                           
macc               :   10,762,574                                                                        
weights (ro)       :   429,468 B (419.40 KiB) (1 segment) / -1,203,744(-73.7%) vs float model            
activations (rw)   :   129,536 B (126.50 KiB) (1 segment) *                                              
ram (total)        :   129,536 B (126.50 KiB) = 129,536 + 0 + 0                                          
---------------------------------------------------------------------------------------------------------
(*) 'input'/'output' buffers can be used from the activations buffer

Model name - uint8float_mobilenetV20_35_acc0_972 ['serving_default_mobilenetv2_0_35_96_input0'] ['conversion_70']
------ ---------------------------------------------------------- --------------------------- ----------------- ----------- -------------------------------------------- --- ----------------- ------------------- ----------------------------- 
m_id   layer (type,original)                                      oshape                      param/size               macc                                 connected to   | c_size            c_macc              c_type                        
------ ---------------------------------------------------------- --------------------------- ----------------- ----------- -------------------------------------------- --- ----------------- ------------------- ----------------------------- 
0      serving_default_mobilenetv2_0_35_96_input0 (Input, )       [b:1,h:96,h:96,w:96,c:3]                                                                                 |                   +55,296(+100.0%)    converter_oi8[0]              
       conversion_0 (Conversion, QUANTIZE)                        [b:1,h:96,h:96,w:96,c:3]                           55,296   serving_default_mobilenetv2_0_35_96_input0   |                   -55,296(-100.0%)    
------ ---------------------------------------------------------- --------------------------- ----------------- ----------- -------------------------------------------- --- ----------------- ------------------- ----------------------------- 
1      conv2d_1 (Conv2D, CONV_2D)                                 [b:1,h:48,h:48,w:48,c:16]   448/496               995,344                                 conversion_0   |                                       optimized_conv2d_oi8[1]       
       nl_1_nl (Nonlinearity, CONV_2D)                            [b:1,h:48,h:48,w:48,c:16]                          36,864                                     conv2d_1   |                   -36,864(-100.0%)    
------ ---------------------------------------------------------- --------------------------- ----------------- ----------- -------------------------------------------- --- ----------------- ------------------- ----------------------------- 
2      conv2d_2 (Conv2D, DEPTHWISE_CONV_2D)                       [b:1,h:48,h:48,w:48,c:16]   160/208               331,792                                      nl_1_nl   |                                       pad_oi8/conv2d_oi8[2, 3]      
       nl_2_nl (Nonlinearity, DEPTHWISE_CONV_2D)                  [b:1,h:48,h:48,w:48,c:16]                          36,864                                     conv2d_2   |                   -36,864(-100.0%)    
------ ---------------------------------------------------------- --------------------------- ----------------- ----------- -------------------------------------------- --- ----------------- ------------------- ----------------------------- 
3      conv2d_3 (Conv2D, CONV_2D)                                 [b:1,h:48,h:48,w:48,c:8]    136/160               294,920                                      nl_2_nl   |                                       conv2d_oi8[4]                 
------ ---------------------------------------------------------- --------------------------- ----------------- ----------- -------------------------------------------- --- ----------------- ------------------- ----------------------------- 
4      conv2d_4 (Conv2D, CONV_2D)                                 [b:1,h:48,h:48,w:48,c:48]   432/576               884,784                                     conv2d_3   |                                       conv2d_oi8[5]                 
       nl_4_nl (Nonlinearity, CONV_2D)                            [b:1,h:48,h:48,w:48,c:48]                         110,592                                     conv2d_4   |                   -110,592(-100.0%)   
------ ---------------------------------------------------------- --------------------------- ----------------- ----------- -------------------------------------------- --- ----------------- ------------------- ----------------------------- 
5      pad_5 (Pad, PAD)                                           [b:1,h:49,h:49,w:49,c:48]                                                                      nl_4_nl   | +624(+100.0%)     +248,880(+100.0%)   conv2d_oi8[7]                 
------ ---------------------------------------------------------- --------------------------- ----------------- ----------- -------------------------------------------- --- ----------------- ------------------- ----------------------------- 
6      conv2d_6 (Conv2D, DEPTHWISE_CONV_2D)                       [b:1,h:24,h:24,w:24,c:48]   480/624               248,880                                        pad_5   | -624(-100.0%)     -248,880(-100.0%)   pad_oi8[6]                    
       nl_6_nl (Nonlinearity, DEPTHWISE_CONV_2D)                  [b:1,h:24,h:24,w:24,c:48]                          27,648                                     conv2d_6   |                   -27,648(-100.0%)    
------ ---------------------------------------------------------- --------------------------- ----------------- ----------- -------------------------------------------- --- ----------------- ------------------- ----------------------------- 
7      conv2d_7 (Conv2D, CONV_2D)                                 [b:1,h:24,h:24,w:24,c:8]    392/416               221,192                                      nl_6_nl   |                                       conv2d_oi8[8]                 
------ ---------------------------------------------------------- --------------------------- ----------------- ----------- -------------------------------------------- --- ----------------- ------------------- ----------------------------- 
8      conv2d_8 (Conv2D, CONV_2D)                                 [b:1,h:24,h:24,w:24,c:48]   432/576               221,232                                     conv2d_7   |                                       conv2d_oi8[9]                 
       nl_8_nl (Nonlinearity, CONV_2D)                            [b:1,h:24,h:24,w:24,c:48]                          27,648                                     conv2d_8   |                   -27,648(-100.0%)    
------ ---------------------------------------------------------- --------------------------- ----------------- ----------- -------------------------------------------- --- ----------------- ------------------- ----------------------------- 
9      conv2d_9 (Conv2D, DEPTHWISE_CONV_2D)                       [b:1,h:24,h:24,w:24,c:48]   480/624               248,880                                      nl_8_nl   |                                       pad_oi8/conv2d_oi8[10, 11]    
       nl_9_nl (Nonlinearity, DEPTHWISE_CONV_2D)                  [b:1,h:24,h:24,w:24,c:48]                          27,648                                     conv2d_9   |                   -27,648(-100.0%)    
------ ---------------------------------------------------------- --------------------------- ----------------- ----------- -------------------------------------------- --- ----------------- ------------------- ----------------------------- 
10     conv2d_10 (Conv2D, CONV_2D)                                [b:1,h:24,h:24,w:24,c:8]    392/416               221,192                                      nl_9_nl   |                                       conv2d_oi8[12]                
------ ---------------------------------------------------------- --------------------------- ----------------- ----------- -------------------------------------------- --- ----------------- ------------------- ----------------------------- 
11     eltwise_11 (Eltwise, ADD)                                  [b:1,h:24,h:24,w:24,c:8]                            4,608                                     conv2d_7   |                                       eltwise_integer/sum_oi8[13]   
                                                                                                                                                               conv2d_10   | 
------ ---------------------------------------------------------- --------------------------- ----------------- ----------- -------------------------------------------- --- ----------------- ------------------- ----------------------------- 
12     conv2d_12 (Conv2D, CONV_2D)                                [b:1,h:24,h:24,w:24,c:48]   432/576               221,232                                   eltwise_11   |                                       conv2d_oi8[14]                
       nl_12_nl (Nonlinearity, CONV_2D)                           [b:1,h:24,h:24,w:24,c:48]                          27,648                                    conv2d_12   |                   -27,648(-100.0%)    
------ ---------------------------------------------------------- --------------------------- ----------------- ----------- -------------------------------------------- --- ----------------- ------------------- ----------------------------- 
13     pad_13 (Pad, PAD)                                          [b:1,h:25,h:25,w:25,c:48]                                                                     nl_12_nl   | +624(+100.0%)     +62,256(+100.0%)    conv2d_oi8[16]                
------ ---------------------------------------------------------- --------------------------- ----------------- ----------- -------------------------------------------- --- ----------------- ------------------- ----------------------------- 
14     conv2d_14 (Conv2D, DEPTHWISE_CONV_2D)                      [b:1,h:12,h:12,w:12,c:48]   480/624                62,256                                       pad_13   | -624(-100.0%)     -62,256(-100.0%)    pad_oi8[15]                   
       nl_14_nl (Nonlinearity, DEPTHWISE_CONV_2D)                 [b:1,h:12,h:12,w:12,c:48]                           6,912                                    conv2d_14   |                   -6,912(-100.0%)     
------ ---------------------------------------------------------- --------------------------- ----------------- ----------- -------------------------------------------- --- ----------------- ------------------- ----------------------------- 
15     conv2d_15 (Conv2D, CONV_2D)                                [b:1,h:12,h:12,w:12,c:16]   784/832               110,608                                     nl_14_nl   |                                       conv2d_oi8[17]                
------ ---------------------------------------------------------- --------------------------- ----------------- ----------- -------------------------------------------- --- ----------------- ------------------- ----------------------------- 
16     conv2d_16 (Conv2D, CONV_2D)                                [b:1,h:12,h:12,w:12,c:96]   1,632/1,920           221,280                                    conv2d_15   |                                       conv2d_oi8[18]                
       nl_16_nl (Nonlinearity, CONV_2D)                           [b:1,h:12,h:12,w:12,c:96]                          13,824                                    conv2d_16   |                   -13,824(-100.0%)    
------ ---------------------------------------------------------- --------------------------- ----------------- ----------- -------------------------------------------- --- ----------------- ------------------- ----------------------------- 
17     conv2d_17 (Conv2D, DEPTHWISE_CONV_2D)                      [b:1,h:12,h:12,w:12,c:96]   960/1,248             124,512                                     nl_16_nl   |                                       pad_oi8/conv2d_oi8[19, 20]    
       nl_17_nl (Nonlinearity, DEPTHWISE_CONV_2D)                 [b:1,h:12,h:12,w:12,c:96]                          13,824                                    conv2d_17   |                   -13,824(-100.0%)    
------ ---------------------------------------------------------- --------------------------- ----------------- ----------- -------------------------------------------- --- ----------------- ------------------- ----------------------------- 
18     conv2d_18 (Conv2D, CONV_2D)                                [b:1,h:12,h:12,w:12,c:16]   1,552/1,600           221,200                                     nl_17_nl   |                                       conv2d_oi8[21]                
------ ---------------------------------------------------------- --------------------------- ----------------- ----------- -------------------------------------------- --- ----------------- ------------------- ----------------------------- 
19     eltwise_19 (Eltwise, ADD)                                  [b:1,h:12,h:12,w:12,c:16]                           2,304                                    conv2d_15   |                                       eltwise_integer/sum_oi8[22]   
                                                                                                                                                               conv2d_18   | 
------ ---------------------------------------------------------- --------------------------- ----------------- ----------- -------------------------------------------- --- ----------------- ------------------- ----------------------------- 
20     conv2d_20 (Conv2D, CONV_2D)                                [b:1,h:12,h:12,w:12,c:96]   1,632/1,920           221,280                                   eltwise_19   |                                       conv2d_oi8[23]                
       nl_20_nl (Nonlinearity, CONV_2D)                           [b:1,h:12,h:12,w:12,c:96]                          13,824                                    conv2d_20   |                   -13,824(-100.0%)    
------ ---------------------------------------------------------- --------------------------- ----------------- ----------- -------------------------------------------- --- ----------------- ------------------- ----------------------------- 
21     conv2d_21 (Conv2D, DEPTHWISE_CONV_2D)                      [b:1,h:12,h:12,w:12,c:96]   960/1,248             124,512                                     nl_20_nl   |                                       pad_oi8/conv2d_oi8[24, 25]    
       nl_21_nl (Nonlinearity, DEPTHWISE_CONV_2D)                 [b:1,h:12,h:12,w:12,c:96]                          13,824                                    conv2d_21   |                   -13,824(-100.0%)    
------ ---------------------------------------------------------- --------------------------- ----------------- ----------- -------------------------------------------- --- ----------------- ------------------- ----------------------------- 
22     conv2d_22 (Conv2D, CONV_2D)                                [b:1,h:12,h:12,w:12,c:16]   1,552/1,600           221,200                                     nl_21_nl   |                                       conv2d_oi8[26]                
------ ---------------------------------------------------------- --------------------------- ----------------- ----------- -------------------------------------------- --- ----------------- ------------------- ----------------------------- 
23     eltwise_23 (Eltwise, ADD)                                  [b:1,h:12,h:12,w:12,c:16]                           2,304                                   eltwise_19   |                                       eltwise_integer/sum_oi8[27]   
                                                                                                                                                               conv2d_22   | 
------ ---------------------------------------------------------- --------------------------- ----------------- ----------- -------------------------------------------- --- ----------------- ------------------- ----------------------------- 
24     conv2d_24 (Conv2D, CONV_2D)                                [b:1,h:12,h:12,w:12,c:96]   1,632/1,920           221,280                                   eltwise_23   |                                       conv2d_oi8[28]                
       nl_24_nl (Nonlinearity, CONV_2D)                           [b:1,h:12,h:12,w:12,c:96]                          13,824                                    conv2d_24   |                   -13,824(-100.0%)    
------ ---------------------------------------------------------- --------------------------- ----------------- ----------- -------------------------------------------- --- ----------------- ------------------- ----------------------------- 
25     pad_25 (Pad, PAD)                                          [b:1,h:13,h:13,w:13,c:96]                                                                     nl_24_nl   | +1,248(+100.0%)   +31,200(+100.0%)    conv2d_oi8[30]                
------ ---------------------------------------------------------- --------------------------- ----------------- ----------- -------------------------------------------- --- ----------------- ------------------- ----------------------------- 
26     conv2d_26 (Conv2D, DEPTHWISE_CONV_2D)                      [b:1,h:6,h:6,w:6,c:96]      960/1,248              31,200                                       pad_25   | -1,248(-100.0%)   -31,200(-100.0%)    pad_oi8[29]                   
       nl_26_nl (Nonlinearity, DEPTHWISE_CONV_2D)                 [b:1,h:6,h:6,w:6,c:96]                              3,456                                    conv2d_26   |                   -3,456(-100.0%)     
------ ---------------------------------------------------------- --------------------------- ----------------- ----------- -------------------------------------------- --- ----------------- ------------------- ----------------------------- 
27     conv2d_27 (Conv2D, CONV_2D)                                [b:1,h:6,h:6,w:6,c:24]      2,328/2,400            82,968                                     nl_26_nl   |                                       conv2d_oi8[31]                
------ ---------------------------------------------------------- --------------------------- ----------------- ----------- -------------------------------------------- --- ----------------- ------------------- ----------------------------- 
28     conv2d_28 (Conv2D, CONV_2D)                                [b:1,h:6,h:6,w:6,c:144]     3,600/4,032           124,560                                    conv2d_27   |                                       conv2d_oi8[32]                
       nl_28_nl (Nonlinearity, CONV_2D)                           [b:1,h:6,h:6,w:6,c:144]                             5,184                                    conv2d_28   |                   -5,184(-100.0%)     
------ ---------------------------------------------------------- --------------------------- ----------------- ----------- -------------------------------------------- --- ----------------- ------------------- ----------------------------- 
29     conv2d_29 (Conv2D, DEPTHWISE_CONV_2D)                      [b:1,h:6,h:6,w:6,c:144]     1,440/1,872            46,800                                     nl_28_nl   |                                       pad_oi8/conv2d_oi8[33, 34]    
       nl_29_nl (Nonlinearity, DEPTHWISE_CONV_2D)                 [b:1,h:6,h:6,w:6,c:144]                             5,184                                    conv2d_29   |                   -5,184(-100.0%)     
------ ---------------------------------------------------------- --------------------------- ----------------- ----------- -------------------------------------------- --- ----------------- ------------------- ----------------------------- 
30     conv2d_30 (Conv2D, CONV_2D)                                [b:1,h:6,h:6,w:6,c:24]      3,480/3,552           124,440                                     nl_29_nl   |                                       conv2d_oi8[35]                
------ ---------------------------------------------------------- --------------------------- ----------------- ----------- -------------------------------------------- --- ----------------- ------------------- ----------------------------- 
31     eltwise_31 (Eltwise, ADD)                                  [b:1,h:6,h:6,w:6,c:24]                                864                                    conv2d_27   |                                       eltwise_integer/sum_oi8[36]   
                                                                                                                                                               conv2d_30   | 
------ ---------------------------------------------------------- --------------------------- ----------------- ----------- -------------------------------------------- --- ----------------- ------------------- ----------------------------- 
32     conv2d_32 (Conv2D, CONV_2D)                                [b:1,h:6,h:6,w:6,c:144]     3,600/4,032           124,560                                   eltwise_31   |                                       conv2d_oi8[37]                
       nl_32_nl (Nonlinearity, CONV_2D)                           [b:1,h:6,h:6,w:6,c:144]                             5,184                                    conv2d_32   |                   -5,184(-100.0%)     
------ ---------------------------------------------------------- --------------------------- ----------------- ----------- -------------------------------------------- --- ----------------- ------------------- ----------------------------- 
33     conv2d_33 (Conv2D, DEPTHWISE_CONV_2D)                      [b:1,h:6,h:6,w:6,c:144]     1,440/1,872            46,800                                     nl_32_nl   |                                       pad_oi8/conv2d_oi8[38, 39]    
       nl_33_nl (Nonlinearity, DEPTHWISE_CONV_2D)                 [b:1,h:6,h:6,w:6,c:144]                             5,184                                    conv2d_33   |                   -5,184(-100.0%)     
------ ---------------------------------------------------------- --------------------------- ----------------- ----------- -------------------------------------------- --- ----------------- ------------------- ----------------------------- 
34     conv2d_34 (Conv2D, CONV_2D)                                [b:1,h:6,h:6,w:6,c:24]      3,480/3,552           124,440                                     nl_33_nl   |                                       conv2d_oi8[40]                
------ ---------------------------------------------------------- --------------------------- ----------------- ----------- -------------------------------------------- --- ----------------- ------------------- ----------------------------- 
35     eltwise_35 (Eltwise, ADD)                                  [b:1,h:6,h:6,w:6,c:24]                                864                                   eltwise_31   |                                       eltwise_integer/sum_oi8[41]   
                                                                                                                                                               conv2d_34   | 
------ ---------------------------------------------------------- --------------------------- ----------------- ----------- -------------------------------------------- --- ----------------- ------------------- ----------------------------- 
36     conv2d_36 (Conv2D, CONV_2D)                                [b:1,h:6,h:6,w:6,c:144]     3,600/4,032           124,560                                   eltwise_35   |                                       conv2d_oi8[42]                
       nl_36_nl (Nonlinearity, CONV_2D)                           [b:1,h:6,h:6,w:6,c:144]                             5,184                                    conv2d_36   |                   -5,184(-100.0%)     
------ ---------------------------------------------------------- --------------------------- ----------------- ----------- -------------------------------------------- --- ----------------- ------------------- ----------------------------- 
37     conv2d_37 (Conv2D, DEPTHWISE_CONV_2D)                      [b:1,h:6,h:6,w:6,c:144]     1,440/1,872            46,800                                     nl_36_nl   |                                       pad_oi8/conv2d_oi8[43, 44]    
       nl_37_nl (Nonlinearity, DEPTHWISE_CONV_2D)                 [b:1,h:6,h:6,w:6,c:144]                             5,184                                    conv2d_37   |                   -5,184(-100.0%)     
------ ---------------------------------------------------------- --------------------------- ----------------- ----------- -------------------------------------------- --- ----------------- ------------------- ----------------------------- 
38     conv2d_38 (Conv2D, CONV_2D)                                [b:1,h:6,h:6,w:6,c:24]      3,480/3,552           124,440                                     nl_37_nl   |                                       conv2d_oi8[45]                
------ ---------------------------------------------------------- --------------------------- ----------------- ----------- -------------------------------------------- --- ----------------- ------------------- ----------------------------- 
39     eltwise_39 (Eltwise, ADD)                                  [b:1,h:6,h:6,w:6,c:24]                                864                                   eltwise_35   |                                       eltwise_integer/sum_oi8[46]   
                                                                                                                                                               conv2d_38   | 
------ ---------------------------------------------------------- --------------------------- ----------------- ----------- -------------------------------------------- --- ----------------- ------------------- ----------------------------- 
40     conv2d_40 (Conv2D, CONV_2D)                                [b:1,h:6,h:6,w:6,c:144]     3,600/4,032           124,560                                   eltwise_39   |                                       conv2d_oi8[47]                
       nl_40_nl (Nonlinearity, CONV_2D)                           [b:1,h:6,h:6,w:6,c:144]                             5,184                                    conv2d_40   |                   -5,184(-100.0%)     
------ ---------------------------------------------------------- --------------------------- ----------------- ----------- -------------------------------------------- --- ----------------- ------------------- ----------------------------- 
41     conv2d_41 (Conv2D, DEPTHWISE_CONV_2D)                      [b:1,h:6,h:6,w:6,c:144]     1,440/1,872            46,800                                     nl_40_nl   |                                       pad_oi8/conv2d_oi8[48, 49]    
       nl_41_nl (Nonlinearity, DEPTHWISE_CONV_2D)                 [b:1,h:6,h:6,w:6,c:144]                             5,184                                    conv2d_41   |                   -5,184(-100.0%)     
------ ---------------------------------------------------------- --------------------------- ----------------- ----------- -------------------------------------------- --- ----------------- ------------------- ----------------------------- 
42     conv2d_42 (Conv2D, CONV_2D)                                [b:1,h:6,h:6,w:6,c:32]      4,640/4,736           165,920                                     nl_41_nl   |                                       conv2d_oi8[50]                
------ ---------------------------------------------------------- --------------------------- ----------------- ----------- -------------------------------------------- --- ----------------- ------------------- ----------------------------- 
43     conv2d_43 (Conv2D, CONV_2D)                                [b:1,h:6,h:6,w:6,c:192]     6,336/6,912           221,376                                    conv2d_42   |                                       conv2d_oi8[51]                
       nl_43_nl (Nonlinearity, CONV_2D)                           [b:1,h:6,h:6,w:6,c:192]                             6,912                                    conv2d_43   |                   -6,912(-100.0%)     
------ ---------------------------------------------------------- --------------------------- ----------------- ----------- -------------------------------------------- --- ----------------- ------------------- ----------------------------- 
44     conv2d_44 (Conv2D, DEPTHWISE_CONV_2D)                      [b:1,h:6,h:6,w:6,c:192]     1,920/2,496            62,400                                     nl_43_nl   |                                       pad_oi8/conv2d_oi8[52, 53]    
       nl_44_nl (Nonlinearity, DEPTHWISE_CONV_2D)                 [b:1,h:6,h:6,w:6,c:192]                             6,912                                    conv2d_44   |                   -6,912(-100.0%)     
------ ---------------------------------------------------------- --------------------------- ----------------- ----------- -------------------------------------------- --- ----------------- ------------------- ----------------------------- 
45     conv2d_45 (Conv2D, CONV_2D)                                [b:1,h:6,h:6,w:6,c:32]      6,176/6,272           221,216                                     nl_44_nl   |                                       conv2d_oi8[54]                
------ ---------------------------------------------------------- --------------------------- ----------------- ----------- -------------------------------------------- --- ----------------- ------------------- ----------------------------- 
46     eltwise_46 (Eltwise, ADD)                                  [b:1,h:6,h:6,w:6,c:32]                              1,152                                    conv2d_42   |                                       eltwise_integer/sum_oi8[55]   
                                                                                                                                                               conv2d_45   | 
------ ---------------------------------------------------------- --------------------------- ----------------- ----------- -------------------------------------------- --- ----------------- ------------------- ----------------------------- 
47     conv2d_47 (Conv2D, CONV_2D)                                [b:1,h:6,h:6,w:6,c:192]     6,336/6,912           221,376                                   eltwise_46   |                                       conv2d_oi8[56]                
       nl_47_nl (Nonlinearity, CONV_2D)                           [b:1,h:6,h:6,w:6,c:192]                             6,912                                    conv2d_47   |                   -6,912(-100.0%)     
------ ---------------------------------------------------------- --------------------------- ----------------- ----------- -------------------------------------------- --- ----------------- ------------------- ----------------------------- 
48     conv2d_48 (Conv2D, DEPTHWISE_CONV_2D)                      [b:1,h:6,h:6,w:6,c:192]     1,920/2,496            62,400                                     nl_47_nl   |                                       pad_oi8/conv2d_oi8[57, 58]    
       nl_48_nl (Nonlinearity, DEPTHWISE_CONV_2D)                 [b:1,h:6,h:6,w:6,c:192]                             6,912                                    conv2d_48   |                   -6,912(-100.0%)     
------ ---------------------------------------------------------- --------------------------- ----------------- ----------- -------------------------------------------- --- ----------------- ------------------- ----------------------------- 
49     conv2d_49 (Conv2D, CONV_2D)                                [b:1,h:6,h:6,w:6,c:32]      6,176/6,272           221,216                                     nl_48_nl   |                                       conv2d_oi8[59]                
------ ---------------------------------------------------------- --------------------------- ----------------- ----------- -------------------------------------------- --- ----------------- ------------------- ----------------------------- 
50     eltwise_50 (Eltwise, ADD)                                  [b:1,h:6,h:6,w:6,c:32]                              1,152                                   eltwise_46   |                                       eltwise_integer/sum_oi8[60]   
                                                                                                                                                               conv2d_49   | 
------ ---------------------------------------------------------- --------------------------- ----------------- ----------- -------------------------------------------- --- ----------------- ------------------- ----------------------------- 
51     conv2d_51 (Conv2D, CONV_2D)                                [b:1,h:6,h:6,w:6,c:192]     6,336/6,912           221,376                                   eltwise_50   |                                       conv2d_oi8[61]                
       nl_51_nl (Nonlinearity, CONV_2D)                           [b:1,h:6,h:6,w:6,c:192]                             6,912                                    conv2d_51   |                   -6,912(-100.0%)     
------ ---------------------------------------------------------- --------------------------- ----------------- ----------- -------------------------------------------- --- ----------------- ------------------- ----------------------------- 
52     pad_52 (Pad, PAD)                                          [b:1,h:7,h:7,w:7,c:192]                                                                       nl_51_nl   | +2,496(+100.0%)   +15,744(+100.0%)    conv2d_oi8[63]                
------ ---------------------------------------------------------- --------------------------- ----------------- ----------- -------------------------------------------- --- ----------------- ------------------- ----------------------------- 
53     conv2d_53 (Conv2D, DEPTHWISE_CONV_2D)                      [b:1,h:3,h:3,w:3,c:192]     1,920/2,496            15,744                                       pad_52   | -2,496(-100.0%)   -15,744(-100.0%)    pad_oi8[62]                   
       nl_53_nl (Nonlinearity, DEPTHWISE_CONV_2D)                 [b:1,h:3,h:3,w:3,c:192]                             1,728                                    conv2d_53   |                   -1,728(-100.0%)     
------ ---------------------------------------------------------- --------------------------- ----------------- ----------- -------------------------------------------- --- ----------------- ------------------- ----------------------------- 
54     conv2d_54 (Conv2D, CONV_2D)                                [b:1,h:3,h:3,w:3,c:56]      10,808/10,976          96,824                                     nl_53_nl   |                                       conv2d_oi8[64]                
------ ---------------------------------------------------------- --------------------------- ----------------- ----------- -------------------------------------------- --- ----------------- ------------------- ----------------------------- 
55     conv2d_55 (Conv2D, CONV_2D)                                [b:1,h:3,h:3,w:3,c:336]     19,152/20,160         169,680                                    conv2d_54   |                                       conv2d_oi8[65]                
       nl_55_nl (Nonlinearity, CONV_2D)                           [b:1,h:3,h:3,w:3,c:336]                             3,024                                    conv2d_55   |                   -3,024(-100.0%)     
------ ---------------------------------------------------------- --------------------------- ----------------- ----------- -------------------------------------------- --- ----------------- ------------------- ----------------------------- 
56     conv2d_56 (Conv2D, DEPTHWISE_CONV_2D)                      [b:1,h:3,h:3,w:3,c:336]     3,360/4,368            27,552                                     nl_55_nl   |                                       pad_oi8/conv2d_oi8[66, 67]    
       nl_56_nl (Nonlinearity, DEPTHWISE_CONV_2D)                 [b:1,h:3,h:3,w:3,c:336]                             3,024                                    conv2d_56   |                   -3,024(-100.0%)     
------ ---------------------------------------------------------- --------------------------- ----------------- ----------- -------------------------------------------- --- ----------------- ------------------- ----------------------------- 
57     conv2d_57 (Conv2D, CONV_2D)                                [b:1,h:3,h:3,w:3,c:56]      18,872/19,040         169,400                                     nl_56_nl   |                                       conv2d_oi8[68]                
------ ---------------------------------------------------------- --------------------------- ----------------- ----------- -------------------------------------------- --- ----------------- ------------------- ----------------------------- 
58     eltwise_58 (Eltwise, ADD)                                  [b:1,h:3,h:3,w:3,c:56]                                504                                    conv2d_54   |                                       eltwise_integer/sum_oi8[69]   
                                                                                                                                                               conv2d_57   | 
------ ---------------------------------------------------------- --------------------------- ----------------- ----------- -------------------------------------------- --- ----------------- ------------------- ----------------------------- 
59     conv2d_59 (Conv2D, CONV_2D)                                [b:1,h:3,h:3,w:3,c:336]     19,152/20,160         169,680                                   eltwise_58   |                                       conv2d_oi8[70]                
       nl_59_nl (Nonlinearity, CONV_2D)                           [b:1,h:3,h:3,w:3,c:336]                             3,024                                    conv2d_59   |                   -3,024(-100.0%)     
------ ---------------------------------------------------------- --------------------------- ----------------- ----------- -------------------------------------------- --- ----------------- ------------------- ----------------------------- 
60     conv2d_60 (Conv2D, DEPTHWISE_CONV_2D)                      [b:1,h:3,h:3,w:3,c:336]     3,360/4,368            27,552                                     nl_59_nl   |                                       pad_oi8/conv2d_oi8[71, 72]    
       nl_60_nl (Nonlinearity, DEPTHWISE_CONV_2D)                 [b:1,h:3,h:3,w:3,c:336]                             3,024                                    conv2d_60   |                   -3,024(-100.0%)     
------ ---------------------------------------------------------- --------------------------- ----------------- ----------- -------------------------------------------- --- ----------------- ------------------- ----------------------------- 
61     conv2d_61 (Conv2D, CONV_2D)                                [b:1,h:3,h:3,w:3,c:56]      18,872/19,040         169,400                                     nl_60_nl   |                                       conv2d_oi8[73]                
------ ---------------------------------------------------------- --------------------------- ----------------- ----------- -------------------------------------------- --- ----------------- ------------------- ----------------------------- 
62     eltwise_62 (Eltwise, ADD)                                  [b:1,h:3,h:3,w:3,c:56]                                504                                   eltwise_58   |                                       eltwise_integer/sum_oi8[74]   
                                                                                                                                                               conv2d_61   | 
------ ---------------------------------------------------------- --------------------------- ----------------- ----------- -------------------------------------------- --- ----------------- ------------------- ----------------------------- 
63     conv2d_63 (Conv2D, CONV_2D)                                [b:1,h:3,h:3,w:3,c:336]     19,152/20,160         169,680                                   eltwise_62   |                                       conv2d_oi8[75]                
       nl_63_nl (Nonlinearity, CONV_2D)                           [b:1,h:3,h:3,w:3,c:336]                             3,024                                    conv2d_63   |                   -3,024(-100.0%)     
------ ---------------------------------------------------------- --------------------------- ----------------- ----------- -------------------------------------------- --- ----------------- ------------------- ----------------------------- 
64     conv2d_64 (Conv2D, DEPTHWISE_CONV_2D)                      [b:1,h:3,h:3,w:3,c:336]     3,360/4,368            27,552                                     nl_63_nl   |                                       pad_oi8/conv2d_oi8[76, 77]    
       nl_64_nl (Nonlinearity, DEPTHWISE_CONV_2D)                 [b:1,h:3,h:3,w:3,c:336]                             3,024                                    conv2d_64   |                   -3,024(-100.0%)     
------ ---------------------------------------------------------- --------------------------- ----------------- ----------- -------------------------------------------- --- ----------------- ------------------- ----------------------------- 
65     conv2d_65 (Conv2D, CONV_2D)                                [b:1,h:3,h:3,w:3,c:112]     37,744/38,080         338,800                                     nl_64_nl   |                                       conv2d_oi8[78]                
------ ---------------------------------------------------------- --------------------------- ----------------- ----------- -------------------------------------------- --- ----------------- ------------------- ----------------------------- 
66     conv2d_66 (Conv2D, CONV_2D)                                [b:1,h:3,h:3,w:3,c:1280]    144,640/148,480     1,291,520                                    conv2d_65   |                                       conv2d_oi8[79]                
       nl_66_nl (Nonlinearity, CONV_2D)                           [b:1,h:3,h:3,w:3,c:1280]                           11,520                                    conv2d_66   |                   -11,520(-100.0%)    
------ ---------------------------------------------------------- --------------------------- ----------------- ----------- -------------------------------------------- --- ----------------- ------------------- ----------------------------- 
67     pool_67 (Pool, MEAN)                                       [b:1,h:1,h:1,w:1,c:1280]                           11,520                                     nl_66_nl   |                                       pool_oi8[80]                  
       reshape_67_reshape (Reshape, MEAN)                         [b:1,c:1280]                                                                                   pool_67   |                                       
------ ---------------------------------------------------------- --------------------------- ----------------- ----------- -------------------------------------------- --- ----------------- ------------------- ----------------------------- 
68     MobileNetV2_dense_MatMul (Placeholder, )                   [h:15,h:15,c:1280]          19,200/19,200                                                                | +60(+0.3%)        +19,215(+100.0%)    dense_oi8[81]                 
       MobileNetV2_dense_BiasAdd_ReadVariableOp (Placeholder, )   [c:15]                      15/60                                                                        | -60(-100.0%)                          
       gemm_68 (Gemm, FULLY_CONNECTED)                            [b:1,c:15]                                         19,215                           reshape_67_reshape   |                   -19,215(-100.0%)    
                                                                                                                                                MobileNetV2_dense_MatMul   | 
                                                                                                                                MobileNetV2_dense_BiasAdd_ReadVariableOp   | 
------ ---------------------------------------------------------- --------------------------- ----------------- ----------- -------------------------------------------- --- ----------------- ------------------- ----------------------------- 
69     nl_69 (Nonlinearity, SOFTMAX)                              [b:1,c:15]                                            225                                      gemm_68   |                                       nl_oi8[82]                    
------ ---------------------------------------------------------- --------------------------- ----------------- ----------- -------------------------------------------- --- ----------------- ------------------- ----------------------------- 
70     conversion_70 (Conversion, DEQUANTIZE)                     [b:1,c:15]                                             30                                        nl_69   |                                       converter_of32[o][83]         
------ ---------------------------------------------------------- --------------------------- ----------------- ----------- -------------------------------------------- --- ----------------- ------------------- ----------------------------- 
model/c-model: macc=11,244,398/10,762,574 -481,824(-4.3%) weights=429,468/429,468  activations=--/129,536 io=--/0



Generated C-graph summary
------------------------------------------------------------------------------------------------------------------------
model name            : uint8float_mobilenetv20_35_acc0_972
c-name                : network
c-node #              : 84
c-array #             : 280
activations size      : 129536 (1 segment)
weights size          : 429468 (1 segment)
macc                  : 10762574
inputs                : ['serving_default_mobilenetv2_0_35_96_input0_output']
outputs               : ['conversion_70_output']

C-Arrays (280)
------ --------------------------------------------------- --------------- ------------------------- --------------- --------------- --------- 
c_id   name (*_array)                                      item/size       domain/mem-pool           c-type          fmt             comment   
------ --------------------------------------------------- --------------- ------------------------- --------------- --------------- --------- 
0      conv2d_37_pad_before_output                         9216/9216       activations/**default**   int8_t          sa8                       
1      conv2d_37_output                                    5184/5184       activations/**default**   int8_t          sa8                       
2      conv2d_38_output                                    864/864         activations/**default**   int8_t          sa8                       
3      conv2d_17_scratch0                                  3553/3553       activations/**default**   int8_t          s8                        
4      eltwise_39_output                                   864/864         activations/**default**   int8_t          sa8                       
5      conv2d_40_output                                    5184/5184       activations/**default**   int8_t          sa8                       
6      conv2d_17_scratch1                                  13824/13824     activations/**default**   int8_t          sa8                       
7      conv2d_41_pad_before_output                         9216/9216       activations/**default**   int8_t          sa8                       
8      conv2d_41_output                                    5184/5184       activations/**default**   int8_t          sa8                       
9      conv2d_42_output                                    1152/1152       activations/**default**   int8_t          ss8                       
10     conv2d_18_scratch0                                  544/544         activations/**default**   int8_t          s8                        
11     conv2d_43_output                                    6912/6912       activations/**default**   int8_t          sa8                       
12     conv2d_44_pad_before_output                         12288/12288     activations/**default**   int8_t          sa8                       
13     conv2d_44_output                                    6912/6912       activations/**default**   int8_t          sa8                       
14     conv2d_20_scratch0                                  1024/1024       activations/**default**   int8_t          s8                        
15     conv2d_45_output                                    1152/1152       activations/**default**   int8_t          sa8                       
16     eltwise_46_output                                   1152/1152       activations/**default**   int8_t          sa8                       
17     conv2d_20_scratch1                                  13824/13824     activations/**default**   int8_t          sa8                       
18     conv2d_47_output                                    6912/6912       activations/**default**   int8_t          sa8                       
19     conv2d_48_pad_before_output                         12288/12288     activations/**default**   int8_t          sa8                       
20     conv2d_48_output                                    6912/6912       activations/**default**   int8_t          sa8                       
21     conv2d_21_scratch0                                  3553/3553       activations/**default**   int8_t          s8                        
22     conv2d_49_output                                    1152/1152       activations/**default**   int8_t          sa8                       
23     eltwise_50_output                                   1152/1152       activations/**default**   int8_t          sa8                       
24     conv2d_21_scratch1                                  13824/13824     activations/**default**   int8_t          sa8                       
25     conv2d_51_output                                    6912/6912       activations/**default**   int8_t          sa8                       
26     conv2d_53_pad_before_output                         9408/9408       activations/**default**   int8_t          sa8                       
27     conv2d_53_output                                    1728/1728       activations/**default**   int8_t          sa8                       
28     conv2d_22_scratch0                                  544/544         activations/**default**   int8_t          s8                        
29     conv2d_54_output                                    504/504         activations/**default**   int8_t          sa8                       
30     conv2d_55_output                                    3024/3024       activations/**default**   int8_t          sa8                       
31     conv2d_56_pad_before_output                         8400/8400       activations/**default**   int8_t          sa8                       
32     conv2d_24_scratch0                                  1024/1024       activations/**default**   int8_t          s8                        
33     conv2d_56_output                                    3024/3024       activations/**default**   int8_t          sa8                       
34     conv2d_57_output                                    504/504         activations/**default**   int8_t          sa8                       
35     conv2d_24_scratch1                                  13824/13824     activations/**default**   int8_t          sa8                       
36     eltwise_58_output                                   504/504         activations/**default**   int8_t          sa8                       
37     conv2d_59_output                                    3024/3024       activations/**default**   int8_t          sa8                       
38     conv2d_60_pad_before_output                         8400/8400       activations/**default**   int8_t          sa8                       
39     conv2d_26_scratch0                                  3553/3553       activations/**default**   int8_t          s8                        
40     conv2d_60_output                                    3024/3024       activations/**default**   int8_t          sa8                       
41     conv2d_61_output                                    504/504         activations/**default**   int8_t          sa8                       
42     conv2d_26_scratch1                                  3456/3456       activations/**default**   int8_t          sa8                       
43     eltwise_62_output                                   504/504         activations/**default**   int8_t          sa8                       
44     conv2d_63_output                                    3024/3024       activations/**default**   int8_t          sa8                       
45     conv2d_64_pad_before_output                         8400/8400       activations/**default**   int8_t          sa8                       
46     conv2d_27_scratch0                                  624/624         activations/**default**   int8_t          s8                        
47     conv2d_64_output                                    3024/3024       activations/**default**   int8_t          sa8                       
48     conv2d_65_output                                    1008/1008       activations/**default**   int8_t          sa8                       
49     conv2d_66_output                                    11520/11520     activations/**default**   int8_t          sa8                       
50     conv2d_28_scratch0                                  1536/1536       activations/**default**   int8_t          s8                        
51     pool_67_output                                      1280/1280       activations/**default**   int8_t          sa8                       
52     gemm_68_output                                      15/15           activations/**default**   int8_t          sa8                       
53     conv2d_28_scratch1                                  5184/5184       activations/**default**   int8_t          sa8                       
54     nl_69_output                                        15/15           activations/**default**   int8_t          sa8                       
55     conversion_70_output                                15/60           activations/**default**   float           float32         /output   
56     conv2d_1_weights                                    432/432         weights/weights           const int8_t    ss8/ch(16)                
57     conv2d_29_scratch0                                  5329/5329       activations/**default**   int8_t          s8                        
58     conv2d_1_bias                                       16/64           weights/weights           const int32_t   ss32/ch(16)               
59     conv2d_29_scratch1                                  5184/5184       activations/**default**   int8_t          sa8                       
60     conv2d_2_weights                                    144/144         weights/weights           const int8_t    ss8/ch(16)                
61     conv2d_2_bias                                       16/64           weights/weights           const int32_t   ss32/ch(16)               
62     conv2d_30_scratch0                                  816/816         activations/**default**   int8_t          s8                        
63     conv2d_3_weights                                    128/128         weights/weights           const int8_t    ss8/ch(8)                 
64     conv2d_3_bias                                       8/32            weights/weights           const int32_t   ss32/ch(8)                
65     conv2d_32_scratch0                                  1536/1536       activations/**default**   int8_t          s8                        
66     conv2d_4_weights                                    384/384         weights/weights           const int8_t    ss8/ch(48)                
67     conv2d_4_bias                                       48/192          weights/weights           const int32_t   ss32/ch(48)               
68     conv2d_32_scratch1                                  5184/5184       activations/**default**   int8_t          sa8                       
69     conv2d_6_weights                                    432/432         weights/weights           const int8_t    ss8/ch(48)                
70     conv2d_6_bias                                       48/192          weights/weights           const int32_t   ss32/ch(48)               
71     conv2d_33_scratch0                                  5329/5329       activations/**default**   int8_t          s8                        
72     conv2d_7_weights                                    384/384         weights/weights           const int8_t    ss8/ch(8)                 
73     conv2d_33_scratch1                                  5184/5184       activations/**default**   int8_t          sa8                       
74     conv2d_7_bias                                       8/32            weights/weights           const int32_t   ss32/ch(8)                
75     conv2d_8_weights                                    384/384         weights/weights           const int8_t    ss8/ch(48)                
76     conv2d_34_scratch0                                  816/816         activations/**default**   int8_t          s8                        
77     conv2d_8_bias                                       48/192          weights/weights           const int32_t   ss32/ch(48)               
78     conv2d_9_weights                                    432/432         weights/weights           const int8_t    ss8/ch(48)                
79     conv2d_36_scratch0                                  1536/1536       activations/**default**   int8_t          s8                        
80     conv2d_9_bias                                       48/192          weights/weights           const int32_t   ss32/ch(48)               
81     conv2d_36_scratch1                                  5184/5184       activations/**default**   int8_t          sa8                       
82     conv2d_10_weights                                   384/384         weights/weights           const int8_t    ss8/ch(8)                 
83     conv2d_10_bias                                      8/32            weights/weights           const int32_t   ss32/ch(8)                
84     conv2d_37_scratch0                                  5329/5329       activations/**default**   int8_t          s8                        
85     conv2d_12_weights                                   384/384         weights/weights           const int8_t    ss8/ch(48)                
86     conv2d_12_bias                                      48/192          weights/weights           const int32_t   ss32/ch(48)               
87     conv2d_37_scratch1                                  5184/5184       activations/**default**   int8_t          sa8                       
88     conv2d_14_weights                                   432/432         weights/weights           const int8_t    ss8/ch(48)                
89     conv2d_14_bias                                      48/192          weights/weights           const int32_t   ss32/ch(48)               
90     conv2d_38_scratch0                                  816/816         activations/**default**   int8_t          s8                        
91     conv2d_15_weights                                   768/768         weights/weights           const int8_t    ss8/ch(16)                
92     conv2d_15_bias                                      16/64           weights/weights           const int32_t   ss32/ch(16)               
93     conv2d_40_scratch0                                  1536/1536       activations/**default**   int8_t          s8                        
94     conv2d_16_weights                                   1536/1536       weights/weights           const int8_t    ss8/ch(96)                
95     conv2d_40_scratch1                                  5184/5184       activations/**default**   int8_t          sa8                       
96     conv2d_16_bias                                      96/384          weights/weights           const int32_t   ss32/ch(96)               
97     conv2d_17_weights                                   864/864         weights/weights           const int8_t    ss8/ch(96)                
98     conv2d_41_scratch0                                  5329/5329       activations/**default**   int8_t          s8                        
99     conv2d_17_bias                                      96/384          weights/weights           const int32_t   ss32/ch(96)               
100    conv2d_41_scratch1                                  5184/5184       activations/**default**   int8_t          sa8                       
101    conv2d_18_weights                                   1536/1536       weights/weights           const int8_t    ss8/ch(16)                
102    conv2d_18_bias                                      16/64           weights/weights           const int32_t   ss32/ch(16)               
103    conv2d_42_scratch0                                  896/896         activations/**default**   int8_t          s8                        
104    conv2d_20_weights                                   1536/1536       weights/weights           const int8_t    ss8/ch(96)                
105    conv2d_20_bias                                      96/384          weights/weights           const int32_t   ss32/ch(96)               
106    conv2d_43_scratch0                                  2048/2048       activations/**default**   int8_t          s8                        
107    conv2d_21_weights                                   864/864         weights/weights           const int8_t    ss8/ch(96)                
108    conv2d_21_bias                                      96/384          weights/weights           const int32_t   ss32/ch(96)               
109    conv2d_43_scratch1                                  6912/6912       activations/**default**   int8_t          sa8                       
110    conv2d_22_weights                                   1536/1536       weights/weights           const int8_t    ss8/ch(16)                
111    conv2d_22_bias                                      16/64           weights/weights           const int32_t   ss32/ch(16)               
112    conv2d_44_scratch0                                  7105/7105       activations/**default**   int8_t          s8                        
113    conv2d_24_weights                                   1536/1536       weights/weights           const int8_t    ss8/ch(96)                
114    conv2d_44_scratch1                                  6912/6912       activations/**default**   int8_t          sa8                       
115    conv2d_24_bias                                      96/384          weights/weights           const int32_t   ss32/ch(96)               
116    conv2d_26_weights                                   864/864         weights/weights           const int8_t    ss8/ch(96)                
117    conv2d_45_scratch0                                  1088/1088       activations/**default**   int8_t          s8                        
118    conv2d_26_bias                                      96/384          weights/weights           const int32_t   ss32/ch(96)               
119    conv2d_27_weights                                   2304/2304       weights/weights           const int8_t    ss8/ch(24)                
120    conv2d_47_scratch0                                  2048/2048       activations/**default**   int8_t          s8                        
121    conv2d_27_bias                                      24/96           weights/weights           const int32_t   ss32/ch(24)               
122    conv2d_47_scratch1                                  6912/6912       activations/**default**   int8_t          sa8                       
123    conv2d_28_weights                                   3456/3456       weights/weights           const int8_t    ss8/ch(144)               
124    conv2d_28_bias                                      144/576         weights/weights           const int32_t   ss32/ch(144)              
125    conv2d_48_scratch0                                  7105/7105       activations/**default**   int8_t          s8                        
126    conv2d_29_weights                                   1296/1296       weights/weights           const int8_t    ss8/ch(144)               
127    conv2d_29_bias                                      144/576         weights/weights           const int32_t   ss32/ch(144)              
128    conv2d_48_scratch1                                  6912/6912       activations/**default**   int8_t          sa8                       
129    conv2d_30_weights                                   3456/3456       weights/weights           const int8_t    ss8/ch(24)                
130    conv2d_30_bias                                      24/96           weights/weights           const int32_t   ss32/ch(24)               
131    conv2d_49_scratch0                                  1088/1088       activations/**default**   int8_t          s8                        
132    conv2d_32_weights                                   3456/3456       weights/weights           const int8_t    ss8/ch(144)               
133    conv2d_32_bias                                      144/576         weights/weights           const int32_t   ss32/ch(144)              
134    conv2d_51_scratch0                                  2048/2048       activations/**default**   int8_t          s8                        
135    conv2d_33_weights                                   1296/1296       weights/weights           const int8_t    ss8/ch(144)               
136    conv2d_51_scratch1                                  6912/6912       activations/**default**   int8_t          sa8                       
137    conv2d_33_bias                                      144/576         weights/weights           const int32_t   ss32/ch(144)              
138    conv2d_34_weights                                   3456/3456       weights/weights           const int8_t    ss8/ch(24)                
139    conv2d_53_scratch0                                  7105/7105       activations/**default**   int8_t          s8                        
140    conv2d_34_bias                                      24/96           weights/weights           const int32_t   ss32/ch(24)               
141    conv2d_53_scratch1                                  1728/1728       activations/**default**   int8_t          sa8                       
142    conv2d_36_weights                                   3456/3456       weights/weights           const int8_t    ss8/ch(144)               
143    conv2d_36_bias                                      144/576         weights/weights           const int32_t   ss32/ch(144)              
144    conv2d_54_scratch0                                  1328/1328       activations/**default**   int8_t          s8                        
145    conv2d_37_weights                                   1296/1296       weights/weights           const int8_t    ss8/ch(144)               
146    conv2d_37_bias                                      144/576         weights/weights           const int32_t   ss32/ch(144)              
147    conv2d_55_scratch0                                  3584/3584       activations/**default**   int8_t          s8                        
148    conv2d_38_weights                                   3456/3456       weights/weights           const int8_t    ss8/ch(24)                
149    conv2d_38_bias                                      24/96           weights/weights           const int32_t   ss32/ch(24)               
150    conv2d_55_scratch1                                  3024/3024       activations/**default**   int8_t          sa8                       
151    conv2d_40_weights                                   3456/3456       weights/weights           const int8_t    ss8/ch(144)               
152    conv2d_40_bias                                      144/576         weights/weights           const int32_t   ss32/ch(144)              
153    conv2d_56_scratch0                                  12433/12433     activations/**default**   int8_t          s8                        
154    conv2d_41_weights                                   1296/1296       weights/weights           const int8_t    ss8/ch(144)               
155    conv2d_56_scratch1                                  3024/3024       activations/**default**   int8_t          sa8                       
156    conv2d_41_bias                                      144/576         weights/weights           const int32_t   ss32/ch(144)              
157    conv2d_42_weights                                   4608/4608       weights/weights           const int8_t    ss8/ch(32)                
158    conv2d_57_scratch0                                  1904/1904       activations/**default**   int8_t          s8                        
159    conv2d_42_bias                                      32/128          weights/weights           const int32_t   ss32/ch(32)               
160    conv2d_43_weights                                   6144/6144       weights/weights           const int8_t    ss8/ch(192)               
161    conv2d_59_scratch0                                  3584/3584       activations/**default**   int8_t          s8                        
162    conv2d_43_bias                                      192/768         weights/weights           const int32_t   ss32/ch(192)              
163    conv2d_59_scratch1                                  3024/3024       activations/**default**   int8_t          sa8                       
164    conv2d_44_weights                                   1728/1728       weights/weights           const int8_t    ss8/ch(192)               
165    conv2d_44_bias                                      192/768         weights/weights           const int32_t   ss32/ch(192)              
166    conv2d_60_scratch0                                  12433/12433     activations/**default**   int8_t          s8                        
167    conv2d_45_weights                                   6144/6144       weights/weights           const int8_t    ss8/ch(32)                
168    conv2d_45_bias                                      32/128          weights/weights           const int32_t   ss32/ch(32)               
169    conv2d_60_scratch1                                  3024/3024       activations/**default**   int8_t          sa8                       
170    conv2d_47_weights                                   6144/6144       weights/weights           const int8_t    ss8/ch(192)               
171    conv2d_47_bias                                      192/768         weights/weights           const int32_t   ss32/ch(192)              
172    conv2d_61_scratch0                                  1904/1904       activations/**default**   int8_t          s8                        
173    conv2d_48_weights                                   1728/1728       weights/weights           const int8_t    ss8/ch(192)               
174    conv2d_48_bias                                      192/768         weights/weights           const int32_t   ss32/ch(192)              
175    conv2d_63_scratch0                                  3584/3584       activations/**default**   int8_t          s8                        
176    conv2d_49_weights                                   6144/6144       weights/weights           const int8_t    ss8/ch(32)                
177    conv2d_63_scratch1                                  3024/3024       activations/**default**   int8_t          sa8                       
178    conv2d_49_bias                                      32/128          weights/weights           const int32_t   ss32/ch(32)               
179    conv2d_51_weights                                   6144/6144       weights/weights           const int8_t    ss8/ch(192)               
180    conv2d_64_scratch0                                  12433/12433     activations/**default**   int8_t          s8                        
181    conv2d_51_bias                                      192/768         weights/weights           const int32_t   ss32/ch(192)              
182    conv2d_64_scratch1                                  3024/3024       activations/**default**   int8_t          sa8                       
183    conv2d_53_weights                                   1728/1728       weights/weights           const int8_t    ss8/ch(192)               
184    conv2d_53_bias                                      192/768         weights/weights           const int32_t   ss32/ch(192)              
185    conv2d_65_scratch0                                  2464/2464       activations/**default**   int8_t          s8                        
186    conv2d_54_weights                                   10752/10752     weights/weights           const int8_t    ss8/ch(56)                
187    conv2d_54_bias                                      56/224          weights/weights           const int32_t   ss32/ch(56)               
188    conv2d_66_scratch0                                  13248/13248     activations/**default**   int8_t          s8                        
189    conv2d_55_weights                                   18816/18816     weights/weights           const int8_t    ss8/ch(336)               
190    conv2d_55_bias                                      336/1344        weights/weights           const int32_t   ss32/ch(336)              
191    conv2d_66_scratch1                                  11520/11520     activations/**default**   int8_t          sa8                       
192    conv2d_56_weights                                   3024/3024       weights/weights           const int8_t    ss8/ch(336)               
193    conv2d_56_bias                                      336/1344        weights/weights           const int32_t   ss32/ch(336)              
194    gemm_68_scratch0                                    1280/2560       activations/**default**   int16_t         s16                       
195    conv2d_57_weights                                   18816/18816     weights/weights           const int8_t    ss8/ch(56)                
196    conv2d_57_bias                                      56/224          weights/weights           const int32_t   ss32/ch(56)               
197    nl_69_scratch0                                      15/60           activations/**default**   int32_t         s32                       
198    conv2d_59_weights                                   18816/18816     weights/weights           const int8_t    ss8/ch(336)               
199    conv2d_59_bias                                      336/1344        weights/weights           const int32_t   ss32/ch(336)              
200    conv2d_60_weights                                   3024/3024       weights/weights           const int8_t    ss8/ch(336)               
201    conv2d_60_bias                                      336/1344        weights/weights           const int32_t   ss32/ch(336)              
202    conv2d_61_weights                                   18816/18816     weights/weights           const int8_t    ss8/ch(56)                
203    conv2d_61_bias                                      56/224          weights/weights           const int32_t   ss32/ch(56)               
204    conv2d_63_weights                                   18816/18816     weights/weights           const int8_t    ss8/ch(336)               
205    conv2d_63_bias                                      336/1344        weights/weights           const int32_t   ss32/ch(336)              
206    conv2d_64_weights                                   3024/3024       weights/weights           const int8_t    ss8/ch(336)               
207    conv2d_64_bias                                      336/1344        weights/weights           const int32_t   ss32/ch(336)              
208    conv2d_65_weights                                   37632/37632     weights/weights           const int8_t    ss8/ch(112)               
209    conv2d_65_bias                                      112/448         weights/weights           const int32_t   ss32/ch(112)              
210    conv2d_66_weights                                   143360/143360   weights/weights           const int8_t    ss8/ch(1280)              
211    conv2d_66_bias                                      1280/5120       weights/weights           const int32_t   ss32/ch(1280)             
212    gemm_68_weights                                     19200/19200     weights/weights           const int8_t    ss8                       
213    gemm_68_bias                                        15/60           weights/weights           const int32_t   ss32                      
214    conv2d_1_scratch0                                   1196/1196       activations/**default**   int8_t          s8                        
215    conv2d_1_scratch1                                   36864/36864     activations/**default**   int8_t          sa8                       
216    conv2d_2_scratch0                                   593/593         activations/**default**   int8_t          s8                        
217    conv2d_2_scratch1                                   36864/36864     activations/**default**   int8_t          sa8                       
218    conv2d_3_scratch0                                   144/144         activations/**default**   int8_t          s8                        
219    serving_default_mobilenetv2_0_35_96_input0_output   27648/27648     activations/**default**   uint8_t         ua8             /input    
220    conversion_0_output                                 27648/27649     activations/**default**   int8_t          sa8                       
221    conv2d_1_output                                     36864/36864     activations/**default**   int8_t          sa8                       
222    conv2d_4_scratch0                                   512/512         activations/**default**   int8_t          s8                        
223    conv2d_2_pad_before_output                          40000/40000     activations/**default**   int8_t          sa8                       
224    conv2d_2_output                                     36864/36864     activations/**default**   int8_t          sa8                       
225    conv2d_4_scratch1                                   110592/110592   activations/**default**   int8_t          sa8                       
226    conv2d_3_output                                     18432/18432     activations/**default**   int8_t          sa8                       
227    conv2d_4_output                                     110592/110592   activations/**default**   int8_t          sa8                       
228    conv2d_6_pad_before_output                          115248/115248   activations/**default**   int8_t          sa8                       
229    conv2d_6_scratch0                                   1777/1777       activations/**default**   int8_t          s8                        
230    conv2d_6_output                                     27648/27648     activations/**default**   int8_t          sa8                       
231    conv2d_7_output                                     4608/4608       activations/**default**   int8_t          sa8                       
232    conv2d_6_scratch1                                   27648/27648     activations/**default**   int8_t          sa8                       
233    conv2d_8_output                                     27648/27648     activations/**default**   int8_t          sa8                       
234    conv2d_9_pad_before_output                          32448/32448     activations/**default**   int8_t          sa8                       
235    conv2d_9_output                                     27648/27648     activations/**default**   int8_t          sa8                       
236    conv2d_7_scratch0                                   272/272         activations/**default**   int8_t          s8                        
237    conv2d_10_output                                    4608/4608       activations/**default**   int8_t          sa8                       
238    eltwise_11_output                                   4608/4608       activations/**default**   int8_t          sa8                       
239    conv2d_12_output                                    27648/27648     activations/**default**   int8_t          sa8                       
240    conv2d_8_scratch0                                   512/512         activations/**default**   int8_t          s8                        
241    conv2d_14_pad_before_output                         30000/30000     activations/**default**   int8_t          sa8                       
242    conv2d_14_output                                    6912/6912       activations/**default**   int8_t          sa8                       
243    conv2d_8_scratch1                                   27648/27648     activations/**default**   int8_t          sa8                       
244    conv2d_15_output                                    2304/2304       activations/**default**   int8_t          sa8                       
245    conv2d_16_output                                    13824/13824     activations/**default**   int8_t          sa8                       
246    conv2d_17_pad_before_output                         18816/18816     activations/**default**   int8_t          sa8                       
247    conv2d_9_scratch0                                   1777/1777       activations/**default**   int8_t          s8                        
248    conv2d_17_output                                    13824/13824     activations/**default**   int8_t          sa8                       
249    conv2d_18_output                                    2304/2304       activations/**default**   int8_t          sa8                       
250    conv2d_9_scratch1                                   27648/27648     activations/**default**   int8_t          sa8                       
251    eltwise_19_output                                   2304/2304       activations/**default**   int8_t          sa8                       
252    conv2d_20_output                                    13824/13824     activations/**default**   int8_t          sa8                       
253    conv2d_21_pad_before_output                         18816/18816     activations/**default**   int8_t          sa8                       
254    conv2d_10_scratch0                                  272/272         activations/**default**   int8_t          s8                        
255    conv2d_21_output                                    13824/13824     activations/**default**   int8_t          sa8                       
256    conv2d_22_output                                    2304/2304       activations/**default**   int8_t          sa8                       
257    eltwise_23_output                                   2304/2304       activations/**default**   int8_t          sa8                       
258    conv2d_12_scratch0                                  512/512         activations/**default**   int8_t          s8                        
259    conv2d_24_output                                    13824/13824     activations/**default**   int8_t          sa8                       
260    conv2d_26_pad_before_output                         16224/16224     activations/**default**   int8_t          sa8                       
261    conv2d_12_scratch1                                  27648/27648     activations/**default**   int8_t          sa8                       
262    conv2d_26_output                                    3456/3456       activations/**default**   int8_t          sa8                       
263    conv2d_27_output                                    864/864         activations/**default**   int8_t          sa8                       
264    conv2d_28_output                                    5184/5184       activations/**default**   int8_t          sa8                       
265    conv2d_14_scratch0                                  1777/1777       activations/**default**   int8_t          s8                        
266    conv2d_29_pad_before_output                         9216/9216       activations/**default**   int8_t          sa8                       
267    conv2d_29_output                                    5184/5184       activations/**default**   int8_t          sa8                       
268    conv2d_14_scratch1                                  6912/6912       activations/**default**   int8_t          sa8                       
269    conv2d_30_output                                    864/864         activations/**default**   int8_t          sa8                       
270    eltwise_31_output                                   864/864         activations/**default**   int8_t          sa8                       
271    conv2d_32_output                                    5184/5184       activations/**default**   int8_t          sa8                       
272    conv2d_15_scratch0                                  352/352         activations/**default**   int8_t          s8                        
273    conv2d_33_pad_before_output                         9216/9216       activations/**default**   int8_t          sa8                       
274    conv2d_33_output                                    5184/5184       activations/**default**   int8_t          sa8                       
275    conv2d_34_output                                    864/864         activations/**default**   int8_t          sa8                       
276    conv2d_16_scratch0                                  1024/1024       activations/**default**   int8_t          s8                        
277    eltwise_35_output                                   864/864         activations/**default**   int8_t          sa8                       
278    conv2d_36_output                                    5184/5184       activations/**default**   int8_t          sa8                       
279    conv2d_16_scratch1                                  13824/13824     activations/**default**   int8_t          sa8                       
------ --------------------------------------------------- --------------- ------------------------- --------------- --------------- --------- 

C-Layers (84)
------ ---------------------- ---- ---------------------- --------- -------- ------------------------------------------------------ ---------------------- 
c_id   name (*_layer)         id   layer_type             macc      rom      tensors                                                shape (array id)       
------ ---------------------- ---- ---------------------- --------- -------- ------------------------------------------------------ ---------------------- 
0      conversion_0           0    converter              55296     0        I: serving_default_mobilenetv2_0_35_96_input0_output   (1,96,96,3) (219)      
                                                                             O: conversion_0_output                                 (1,96,96,3) (220)      
------ ---------------------- ---- ---------------------- --------- -------- ------------------------------------------------------ ---------------------- 
1      conv2d_1               1    optimized_conv2d       995344    496      I: conversion_0_output                                 (1,96,96,3) (220)      
                                                                             S: conv2d_1_scratch0                                                          
                                                                             S: conv2d_1_scratch1                                                          
                                                                             W: conv2d_1_weights                                    (3,3,3,16) (56)        
                                                                             W: conv2d_1_bias                                       (16,) (58)             
                                                                             O: conv2d_1_output                                     (1,48,48,16) (221)     
------ ---------------------- ---- ---------------------- --------- -------- ------------------------------------------------------ ---------------------- 
2      conv2d_2_pad_before    2    pad                    0         0        I: conv2d_1_output                                     (1,48,48,16) (221)     
                                                                             O: conv2d_2_pad_before_output                          (1,50,50,16) (223)     
------ ---------------------- ---- ---------------------- --------- -------- ------------------------------------------------------ ---------------------- 
3      conv2d_2               2    conv2d                 331792    208      I: conv2d_2_pad_before_output                          (1,50,50,16) (223)     
                                                                             S: conv2d_2_scratch0                                                          
                                                                             S: conv2d_2_scratch1                                                          
                                                                             W: conv2d_2_weights                                    (16,3,3,1) (60)        
                                                                             W: conv2d_2_bias                                       (16,) (61)             
                                                                             O: conv2d_2_output                                     (1,48,48,16) (224)     
------ ---------------------- ---- ---------------------- --------- -------- ------------------------------------------------------ ---------------------- 
4      conv2d_3               3    conv2d                 294920    160      I: conv2d_2_output                                     (1,48,48,16) (224)     
                                                                             S: conv2d_3_scratch0                                                          
                                                                             W: conv2d_3_weights                                    (16,1,1,8) (63)        
                                                                             W: conv2d_3_bias                                       (8,) (64)              
                                                                             O: conv2d_3_output                                     (1,48,48,8) (226)      
------ ---------------------- ---- ---------------------- --------- -------- ------------------------------------------------------ ---------------------- 
5      conv2d_4               4    conv2d                 884784    576      I: conv2d_3_output                                     (1,48,48,8) (226)      
                                                                             S: conv2d_4_scratch0                                                          
                                                                             S: conv2d_4_scratch1                                                          
                                                                             W: conv2d_4_weights                                    (8,1,1,48) (66)        
                                                                             W: conv2d_4_bias                                       (48,) (67)             
                                                                             O: conv2d_4_output                                     (1,48,48,48) (227)     
------ ---------------------- ---- ---------------------- --------- -------- ------------------------------------------------------ ---------------------- 
6      conv2d_6_pad_before    6    pad                    0         0        I: conv2d_4_output                                     (1,48,48,48) (227)     
                                                                             O: conv2d_6_pad_before_output                          (1,49,49,48) (228)     
------ ---------------------- ---- ---------------------- --------- -------- ------------------------------------------------------ ---------------------- 
7      conv2d_6               5    conv2d                 248880    624      I: conv2d_6_pad_before_output                          (1,49,49,48) (228)     
                                                                             S: conv2d_6_scratch0                                                          
                                                                             S: conv2d_6_scratch1                                                          
                                                                             W: conv2d_6_weights                                    (48,3,3,1) (69)        
                                                                             W: conv2d_6_bias                                       (48,) (70)             
                                                                             O: conv2d_6_output                                     (1,24,24,48) (230)     
------ ---------------------- ---- ---------------------- --------- -------- ------------------------------------------------------ ---------------------- 
8      conv2d_7               7    conv2d                 221192    416      I: conv2d_6_output                                     (1,24,24,48) (230)     
                                                                             S: conv2d_7_scratch0                                                          
                                                                             W: conv2d_7_weights                                    (48,1,1,8) (72)        
                                                                             W: conv2d_7_bias                                       (8,) (74)              
                                                                             O: conv2d_7_output                                     (1,24,24,8) (231)      
------ ---------------------- ---- ---------------------- --------- -------- ------------------------------------------------------ ---------------------- 
9      conv2d_8               8    conv2d                 221232    576      I: conv2d_7_output                                     (1,24,24,8) (231)      
                                                                             S: conv2d_8_scratch0                                                          
                                                                             S: conv2d_8_scratch1                                                          
                                                                             W: conv2d_8_weights                                    (8,1,1,48) (75)        
                                                                             W: conv2d_8_bias                                       (48,) (77)             
                                                                             O: conv2d_8_output                                     (1,24,24,48) (233)     
------ ---------------------- ---- ---------------------- --------- -------- ------------------------------------------------------ ---------------------- 
10     conv2d_9_pad_before    9    pad                    0         0        I: conv2d_8_output                                     (1,24,24,48) (233)     
                                                                             O: conv2d_9_pad_before_output                          (1,26,26,48) (234)     
------ ---------------------- ---- ---------------------- --------- -------- ------------------------------------------------------ ---------------------- 
11     conv2d_9               9    conv2d                 248880    624      I: conv2d_9_pad_before_output                          (1,26,26,48) (234)     
                                                                             S: conv2d_9_scratch0                                                          
                                                                             S: conv2d_9_scratch1                                                          
                                                                             W: conv2d_9_weights                                    (48,3,3,1) (78)        
                                                                             W: conv2d_9_bias                                       (48,) (80)             
                                                                             O: conv2d_9_output                                     (1,24,24,48) (235)     
------ ---------------------- ---- ---------------------- --------- -------- ------------------------------------------------------ ---------------------- 
12     conv2d_10              10   conv2d                 221192    416      I: conv2d_9_output                                     (1,24,24,48) (235)     
                                                                             S: conv2d_10_scratch0                                                         
                                                                             W: conv2d_10_weights                                   (48,1,1,8) (82)        
                                                                             W: conv2d_10_bias                                      (8,) (83)              
                                                                             O: conv2d_10_output                                    (1,24,24,8) (237)      
------ ---------------------- ---- ---------------------- --------- -------- ------------------------------------------------------ ---------------------- 
13     eltwise_11             11   eltwise_integer/sum    4608      0        I: conv2d_7_output                                     (1,24,24,8) (231)      
                                                                             I: conv2d_10_output                                    (1,24,24,8) (237)      
                                                                             O: eltwise_11_output                                   (1,24,24,8) (238)      
------ ---------------------- ---- ---------------------- --------- -------- ------------------------------------------------------ ---------------------- 
14     conv2d_12              12   conv2d                 221232    576      I: eltwise_11_output                                   (1,24,24,8) (238)      
                                                                             S: conv2d_12_scratch0                                                         
                                                                             S: conv2d_12_scratch1                                                         
                                                                             W: conv2d_12_weights                                   (8,1,1,48) (85)        
                                                                             W: conv2d_12_bias                                      (48,) (86)             
                                                                             O: conv2d_12_output                                    (1,24,24,48) (239)     
------ ---------------------- ---- ---------------------- --------- -------- ------------------------------------------------------ ---------------------- 
15     conv2d_14_pad_before   14   pad                    0         0        I: conv2d_12_output                                    (1,24,24,48) (239)     
                                                                             O: conv2d_14_pad_before_output                         (1,25,25,48) (241)     
------ ---------------------- ---- ---------------------- --------- -------- ------------------------------------------------------ ---------------------- 
16     conv2d_14              13   conv2d                 62256     624      I: conv2d_14_pad_before_output                         (1,25,25,48) (241)     
                                                                             S: conv2d_14_scratch0                                                         
                                                                             S: conv2d_14_scratch1                                                         
                                                                             W: conv2d_14_weights                                   (48,3,3,1) (88)        
                                                                             W: conv2d_14_bias                                      (48,) (89)             
                                                                             O: conv2d_14_output                                    (1,12,12,48) (242)     
------ ---------------------- ---- ---------------------- --------- -------- ------------------------------------------------------ ---------------------- 
17     conv2d_15              15   conv2d                 110608    832      I: conv2d_14_output                                    (1,12,12,48) (242)     
                                                                             S: conv2d_15_scratch0                                                         
                                                                             W: conv2d_15_weights                                   (48,1,1,16) (91)       
                                                                             W: conv2d_15_bias                                      (16,) (92)             
                                                                             O: conv2d_15_output                                    (1,12,12,16) (244)     
------ ---------------------- ---- ---------------------- --------- -------- ------------------------------------------------------ ---------------------- 
18     conv2d_16              16   conv2d                 221280    1920     I: conv2d_15_output                                    (1,12,12,16) (244)     
                                                                             S: conv2d_16_scratch0                                                         
                                                                             S: conv2d_16_scratch1                                                         
                                                                             W: conv2d_16_weights                                   (16,1,1,96) (94)       
                                                                             W: conv2d_16_bias                                      (96,) (96)             
                                                                             O: conv2d_16_output                                    (1,12,12,96) (245)     
------ ---------------------- ---- ---------------------- --------- -------- ------------------------------------------------------ ---------------------- 
19     conv2d_17_pad_before   17   pad                    0         0        I: conv2d_16_output                                    (1,12,12,96) (245)     
                                                                             O: conv2d_17_pad_before_output                         (1,14,14,96) (246)     
------ ---------------------- ---- ---------------------- --------- -------- ------------------------------------------------------ ---------------------- 
20     conv2d_17              17   conv2d                 124512    1248     I: conv2d_17_pad_before_output                         (1,14,14,96) (246)     
                                                                             S: conv2d_17_scratch0                                                         
                                                                             S: conv2d_17_scratch1                                                         
                                                                             W: conv2d_17_weights                                   (96,3,3,1) (97)        
                                                                             W: conv2d_17_bias                                      (96,) (99)             
                                                                             O: conv2d_17_output                                    (1,12,12,96) (248)     
------ ---------------------- ---- ---------------------- --------- -------- ------------------------------------------------------ ---------------------- 
21     conv2d_18              18   conv2d                 221200    1600     I: conv2d_17_output                                    (1,12,12,96) (248)     
                                                                             S: conv2d_18_scratch0                                                         
                                                                             W: conv2d_18_weights                                   (96,1,1,16) (101)      
                                                                             W: conv2d_18_bias                                      (16,) (102)            
                                                                             O: conv2d_18_output                                    (1,12,12,16) (249)     
------ ---------------------- ---- ---------------------- --------- -------- ------------------------------------------------------ ---------------------- 
22     eltwise_19             19   eltwise_integer/sum    2304      0        I: conv2d_15_output                                    (1,12,12,16) (244)     
                                                                             I: conv2d_18_output                                    (1,12,12,16) (249)     
                                                                             O: eltwise_19_output                                   (1,12,12,16) (251)     
------ ---------------------- ---- ---------------------- --------- -------- ------------------------------------------------------ ---------------------- 
23     conv2d_20              20   conv2d                 221280    1920     I: eltwise_19_output                                   (1,12,12,16) (251)     
                                                                             S: conv2d_20_scratch0                                                         
                                                                             S: conv2d_20_scratch1                                                         
                                                                             W: conv2d_20_weights                                   (16,1,1,96) (104)      
                                                                             W: conv2d_20_bias                                      (96,) (105)            
                                                                             O: conv2d_20_output                                    (1,12,12,96) (252)     
------ ---------------------- ---- ---------------------- --------- -------- ------------------------------------------------------ ---------------------- 
24     conv2d_21_pad_before   21   pad                    0         0        I: conv2d_20_output                                    (1,12,12,96) (252)     
                                                                             O: conv2d_21_pad_before_output                         (1,14,14,96) (253)     
------ ---------------------- ---- ---------------------- --------- -------- ------------------------------------------------------ ---------------------- 
25     conv2d_21              21   conv2d                 124512    1248     I: conv2d_21_pad_before_output                         (1,14,14,96) (253)     
                                                                             S: conv2d_21_scratch0                                                         
                                                                             S: conv2d_21_scratch1                                                         
                                                                             W: conv2d_21_weights                                   (96,3,3,1) (107)       
                                                                             W: conv2d_21_bias                                      (96,) (108)            
                                                                             O: conv2d_21_output                                    (1,12,12,96) (255)     
------ ---------------------- ---- ---------------------- --------- -------- ------------------------------------------------------ ---------------------- 
26     conv2d_22              22   conv2d                 221200    1600     I: conv2d_21_output                                    (1,12,12,96) (255)     
                                                                             S: conv2d_22_scratch0                                                         
                                                                             W: conv2d_22_weights                                   (96,1,1,16) (110)      
                                                                             W: conv2d_22_bias                                      (16,) (111)            
                                                                             O: conv2d_22_output                                    (1,12,12,16) (256)     
------ ---------------------- ---- ---------------------- --------- -------- ------------------------------------------------------ ---------------------- 
27     eltwise_23             23   eltwise_integer/sum    2304      0        I: eltwise_19_output                                   (1,12,12,16) (251)     
                                                                             I: conv2d_22_output                                    (1,12,12,16) (256)     
                                                                             O: eltwise_23_output                                   (1,12,12,16) (257)     
------ ---------------------- ---- ---------------------- --------- -------- ------------------------------------------------------ ---------------------- 
28     conv2d_24              24   conv2d                 221280    1920     I: eltwise_23_output                                   (1,12,12,16) (257)     
                                                                             S: conv2d_24_scratch0                                                         
                                                                             S: conv2d_24_scratch1                                                         
                                                                             W: conv2d_24_weights                                   (16,1,1,96) (113)      
                                                                             W: conv2d_24_bias                                      (96,) (115)            
                                                                             O: conv2d_24_output                                    (1,12,12,96) (259)     
------ ---------------------- ---- ---------------------- --------- -------- ------------------------------------------------------ ---------------------- 
29     conv2d_26_pad_before   26   pad                    0         0        I: conv2d_24_output                                    (1,12,12,96) (259)     
                                                                             O: conv2d_26_pad_before_output                         (1,13,13,96) (260)     
------ ---------------------- ---- ---------------------- --------- -------- ------------------------------------------------------ ---------------------- 
30     conv2d_26              25   conv2d                 31200     1248     I: conv2d_26_pad_before_output                         (1,13,13,96) (260)     
                                                                             S: conv2d_26_scratch0                                                         
                                                                             S: conv2d_26_scratch1                                                         
                                                                             W: conv2d_26_weights                                   (96,3,3,1) (116)       
                                                                             W: conv2d_26_bias                                      (96,) (118)            
                                                                             O: conv2d_26_output                                    (1,6,6,96) (262)       
------ ---------------------- ---- ---------------------- --------- -------- ------------------------------------------------------ ---------------------- 
31     conv2d_27              27   conv2d                 82968     2400     I: conv2d_26_output                                    (1,6,6,96) (262)       
                                                                             S: conv2d_27_scratch0                                                         
                                                                             W: conv2d_27_weights                                   (96,1,1,24) (119)      
                                                                             W: conv2d_27_bias                                      (24,) (121)            
                                                                             O: conv2d_27_output                                    (1,6,6,24) (263)       
------ ---------------------- ---- ---------------------- --------- -------- ------------------------------------------------------ ---------------------- 
32     conv2d_28              28   conv2d                 124560    4032     I: conv2d_27_output                                    (1,6,6,24) (263)       
                                                                             S: conv2d_28_scratch0                                                         
                                                                             S: conv2d_28_scratch1                                                         
                                                                             W: conv2d_28_weights                                   (24,1,1,144) (123)     
                                                                             W: conv2d_28_bias                                      (144,) (124)           
                                                                             O: conv2d_28_output                                    (1,6,6,144) (264)      
------ ---------------------- ---- ---------------------- --------- -------- ------------------------------------------------------ ---------------------- 
33     conv2d_29_pad_before   29   pad                    0         0        I: conv2d_28_output                                    (1,6,6,144) (264)      
                                                                             O: conv2d_29_pad_before_output                         (1,8,8,144) (266)      
------ ---------------------- ---- ---------------------- --------- -------- ------------------------------------------------------ ---------------------- 
34     conv2d_29              29   conv2d                 46800     1872     I: conv2d_29_pad_before_output                         (1,8,8,144) (266)      
                                                                             S: conv2d_29_scratch0                                                         
                                                                             S: conv2d_29_scratch1                                                         
                                                                             W: conv2d_29_weights                                   (144,3,3,1) (126)      
                                                                             W: conv2d_29_bias                                      (144,) (127)           
                                                                             O: conv2d_29_output                                    (1,6,6,144) (267)      
------ ---------------------- ---- ---------------------- --------- -------- ------------------------------------------------------ ---------------------- 
35     conv2d_30              30   conv2d                 124440    3552     I: conv2d_29_output                                    (1,6,6,144) (267)      
                                                                             S: conv2d_30_scratch0                                                         
                                                                             W: conv2d_30_weights                                   (144,1,1,24) (129)     
                                                                             W: conv2d_30_bias                                      (24,) (130)            
                                                                             O: conv2d_30_output                                    (1,6,6,24) (269)       
------ ---------------------- ---- ---------------------- --------- -------- ------------------------------------------------------ ---------------------- 
36     eltwise_31             31   eltwise_integer/sum    864       0        I: conv2d_27_output                                    (1,6,6,24) (263)       
                                                                             I: conv2d_30_output                                    (1,6,6,24) (269)       
                                                                             O: eltwise_31_output                                   (1,6,6,24) (270)       
------ ---------------------- ---- ---------------------- --------- -------- ------------------------------------------------------ ---------------------- 
37     conv2d_32              32   conv2d                 124560    4032     I: eltwise_31_output                                   (1,6,6,24) (270)       
                                                                             S: conv2d_32_scratch0                                                         
                                                                             S: conv2d_32_scratch1                                                         
                                                                             W: conv2d_32_weights                                   (24,1,1,144) (132)     
                                                                             W: conv2d_32_bias                                      (144,) (133)           
                                                                             O: conv2d_32_output                                    (1,6,6,144) (271)      
------ ---------------------- ---- ---------------------- --------- -------- ------------------------------------------------------ ---------------------- 
38     conv2d_33_pad_before   33   pad                    0         0        I: conv2d_32_output                                    (1,6,6,144) (271)      
                                                                             O: conv2d_33_pad_before_output                         (1,8,8,144) (273)      
------ ---------------------- ---- ---------------------- --------- -------- ------------------------------------------------------ ---------------------- 
39     conv2d_33              33   conv2d                 46800     1872     I: conv2d_33_pad_before_output                         (1,8,8,144) (273)      
                                                                             S: conv2d_33_scratch0                                                         
                                                                             S: conv2d_33_scratch1                                                         
                                                                             W: conv2d_33_weights                                   (144,3,3,1) (135)      
                                                                             W: conv2d_33_bias                                      (144,) (137)           
                                                                             O: conv2d_33_output                                    (1,6,6,144) (274)      
------ ---------------------- ---- ---------------------- --------- -------- ------------------------------------------------------ ---------------------- 
40     conv2d_34              34   conv2d                 124440    3552     I: conv2d_33_output                                    (1,6,6,144) (274)      
                                                                             S: conv2d_34_scratch0                                                         
                                                                             W: conv2d_34_weights                                   (144,1,1,24) (138)     
                                                                             W: conv2d_34_bias                                      (24,) (140)            
                                                                             O: conv2d_34_output                                    (1,6,6,24) (275)       
------ ---------------------- ---- ---------------------- --------- -------- ------------------------------------------------------ ---------------------- 
41     eltwise_35             35   eltwise_integer/sum    864       0        I: eltwise_31_output                                   (1,6,6,24) (270)       
                                                                             I: conv2d_34_output                                    (1,6,6,24) (275)       
                                                                             O: eltwise_35_output                                   (1,6,6,24) (277)       
------ ---------------------- ---- ---------------------- --------- -------- ------------------------------------------------------ ---------------------- 
42     conv2d_36              36   conv2d                 124560    4032     I: eltwise_35_output                                   (1,6,6,24) (277)       
                                                                             S: conv2d_36_scratch0                                                         
                                                                             S: conv2d_36_scratch1                                                         
                                                                             W: conv2d_36_weights                                   (24,1,1,144) (142)     
                                                                             W: conv2d_36_bias                                      (144,) (143)           
                                                                             O: conv2d_36_output                                    (1,6,6,144) (278)      
------ ---------------------- ---- ---------------------- --------- -------- ------------------------------------------------------ ---------------------- 
43     conv2d_37_pad_before   37   pad                    0         0        I: conv2d_36_output                                    (1,6,6,144) (278)      
                                                                             O: conv2d_37_pad_before_output                         (1,8,8,144) (0)        
------ ---------------------- ---- ---------------------- --------- -------- ------------------------------------------------------ ---------------------- 
44     conv2d_37              37   conv2d                 46800     1872     I: conv2d_37_pad_before_output                         (1,8,8,144) (0)        
                                                                             S: conv2d_37_scratch0                                                         
                                                                             S: conv2d_37_scratch1                                                         
                                                                             W: conv2d_37_weights                                   (144,3,3,1) (145)      
                                                                             W: conv2d_37_bias                                      (144,) (146)           
                                                                             O: conv2d_37_output                                    (1,6,6,144) (1)        
------ ---------------------- ---- ---------------------- --------- -------- ------------------------------------------------------ ---------------------- 
45     conv2d_38              38   conv2d                 124440    3552     I: conv2d_37_output                                    (1,6,6,144) (1)        
                                                                             S: conv2d_38_scratch0                                                         
                                                                             W: conv2d_38_weights                                   (144,1,1,24) (148)     
                                                                             W: conv2d_38_bias                                      (24,) (149)            
                                                                             O: conv2d_38_output                                    (1,6,6,24) (2)         
------ ---------------------- ---- ---------------------- --------- -------- ------------------------------------------------------ ---------------------- 
46     eltwise_39             39   eltwise_integer/sum    864       0        I: eltwise_35_output                                   (1,6,6,24) (277)       
                                                                             I: conv2d_38_output                                    (1,6,6,24) (2)         
                                                                             O: eltwise_39_output                                   (1,6,6,24) (4)         
------ ---------------------- ---- ---------------------- --------- -------- ------------------------------------------------------ ---------------------- 
47     conv2d_40              40   conv2d                 124560    4032     I: eltwise_39_output                                   (1,6,6,24) (4)         
                                                                             S: conv2d_40_scratch0                                                         
                                                                             S: conv2d_40_scratch1                                                         
                                                                             W: conv2d_40_weights                                   (24,1,1,144) (151)     
                                                                             W: conv2d_40_bias                                      (144,) (152)           
                                                                             O: conv2d_40_output                                    (1,6,6,144) (5)        
------ ---------------------- ---- ---------------------- --------- -------- ------------------------------------------------------ ---------------------- 
48     conv2d_41_pad_before   41   pad                    0         0        I: conv2d_40_output                                    (1,6,6,144) (5)        
                                                                             O: conv2d_41_pad_before_output                         (1,8,8,144) (7)        
------ ---------------------- ---- ---------------------- --------- -------- ------------------------------------------------------ ---------------------- 
49     conv2d_41              41   conv2d                 46800     1872     I: conv2d_41_pad_before_output                         (1,8,8,144) (7)        
                                                                             S: conv2d_41_scratch0                                                         
                                                                             S: conv2d_41_scratch1                                                         
                                                                             W: conv2d_41_weights                                   (144,3,3,1) (154)      
                                                                             W: conv2d_41_bias                                      (144,) (156)           
                                                                             O: conv2d_41_output                                    (1,6,6,144) (8)        
------ ---------------------- ---- ---------------------- --------- -------- ------------------------------------------------------ ---------------------- 
50     conv2d_42              42   conv2d                 165920    4736     I: conv2d_41_output                                    (1,6,6,144) (8)        
                                                                             S: conv2d_42_scratch0                                                         
                                                                             W: conv2d_42_weights                                   (144,1,1,32) (157)     
                                                                             W: conv2d_42_bias                                      (32,) (159)            
                                                                             O: conv2d_42_output                                    (1,6,6,32) (9)         
------ ---------------------- ---- ---------------------- --------- -------- ------------------------------------------------------ ---------------------- 
51     conv2d_43              43   conv2d                 221376    6912     I: conv2d_42_output                                    (1,6,6,32) (9)         
                                                                             S: conv2d_43_scratch0                                                         
                                                                             S: conv2d_43_scratch1                                                         
                                                                             W: conv2d_43_weights                                   (32,1,1,192) (160)     
                                                                             W: conv2d_43_bias                                      (192,) (162)           
                                                                             O: conv2d_43_output                                    (1,6,6,192) (11)       
------ ---------------------- ---- ---------------------- --------- -------- ------------------------------------------------------ ---------------------- 
52     conv2d_44_pad_before   44   pad                    0         0        I: conv2d_43_output                                    (1,6,6,192) (11)       
                                                                             O: conv2d_44_pad_before_output                         (1,8,8,192) (12)       
------ ---------------------- ---- ---------------------- --------- -------- ------------------------------------------------------ ---------------------- 
53     conv2d_44              44   conv2d                 62400     2496     I: conv2d_44_pad_before_output                         (1,8,8,192) (12)       
                                                                             S: conv2d_44_scratch0                                                         
                                                                             S: conv2d_44_scratch1                                                         
                                                                             W: conv2d_44_weights                                   (192,3,3,1) (164)      
                                                                             W: conv2d_44_bias                                      (192,) (165)           
                                                                             O: conv2d_44_output                                    (1,6,6,192) (13)       
------ ---------------------- ---- ---------------------- --------- -------- ------------------------------------------------------ ---------------------- 
54     conv2d_45              45   conv2d                 221216    6272     I: conv2d_44_output                                    (1,6,6,192) (13)       
                                                                             S: conv2d_45_scratch0                                                         
                                                                             W: conv2d_45_weights                                   (192,1,1,32) (167)     
                                                                             W: conv2d_45_bias                                      (32,) (168)            
                                                                             O: conv2d_45_output                                    (1,6,6,32) (15)        
------ ---------------------- ---- ---------------------- --------- -------- ------------------------------------------------------ ---------------------- 
55     eltwise_46             46   eltwise_integer/sum    1152      0        I: conv2d_42_output                                    (1,6,6,32) (9)         
                                                                             I: conv2d_45_output                                    (1,6,6,32) (15)        
                                                                             O: eltwise_46_output                                   (1,6,6,32) (16)        
------ ---------------------- ---- ---------------------- --------- -------- ------------------------------------------------------ ---------------------- 
56     conv2d_47              47   conv2d                 221376    6912     I: eltwise_46_output                                   (1,6,6,32) (16)        
                                                                             S: conv2d_47_scratch0                                                         
                                                                             S: conv2d_47_scratch1                                                         
                                                                             W: conv2d_47_weights                                   (32,1,1,192) (170)     
                                                                             W: conv2d_47_bias                                      (192,) (171)           
                                                                             O: conv2d_47_output                                    (1,6,6,192) (18)       
------ ---------------------- ---- ---------------------- --------- -------- ------------------------------------------------------ ---------------------- 
57     conv2d_48_pad_before   48   pad                    0         0        I: conv2d_47_output                                    (1,6,6,192) (18)       
                                                                             O: conv2d_48_pad_before_output                         (1,8,8,192) (19)       
------ ---------------------- ---- ---------------------- --------- -------- ------------------------------------------------------ ---------------------- 
58     conv2d_48              48   conv2d                 62400     2496     I: conv2d_48_pad_before_output                         (1,8,8,192) (19)       
                                                                             S: conv2d_48_scratch0                                                         
                                                                             S: conv2d_48_scratch1                                                         
                                                                             W: conv2d_48_weights                                   (192,3,3,1) (173)      
                                                                             W: conv2d_48_bias                                      (192,) (174)           
                                                                             O: conv2d_48_output                                    (1,6,6,192) (20)       
------ ---------------------- ---- ---------------------- --------- -------- ------------------------------------------------------ ---------------------- 
59     conv2d_49              49   conv2d                 221216    6272     I: conv2d_48_output                                    (1,6,6,192) (20)       
                                                                             S: conv2d_49_scratch0                                                         
                                                                             W: conv2d_49_weights                                   (192,1,1,32) (176)     
                                                                             W: conv2d_49_bias                                      (32,) (178)            
                                                                             O: conv2d_49_output                                    (1,6,6,32) (22)        
------ ---------------------- ---- ---------------------- --------- -------- ------------------------------------------------------ ---------------------- 
60     eltwise_50             50   eltwise_integer/sum    1152      0        I: eltwise_46_output                                   (1,6,6,32) (16)        
                                                                             I: conv2d_49_output                                    (1,6,6,32) (22)        
                                                                             O: eltwise_50_output                                   (1,6,6,32) (23)        
------ ---------------------- ---- ---------------------- --------- -------- ------------------------------------------------------ ---------------------- 
61     conv2d_51              51   conv2d                 221376    6912     I: eltwise_50_output                                   (1,6,6,32) (23)        
                                                                             S: conv2d_51_scratch0                                                         
                                                                             S: conv2d_51_scratch1                                                         
                                                                             W: conv2d_51_weights                                   (32,1,1,192) (179)     
                                                                             W: conv2d_51_bias                                      (192,) (181)           
                                                                             O: conv2d_51_output                                    (1,6,6,192) (25)       
------ ---------------------- ---- ---------------------- --------- -------- ------------------------------------------------------ ---------------------- 
62     conv2d_53_pad_before   53   pad                    0         0        I: conv2d_51_output                                    (1,6,6,192) (25)       
                                                                             O: conv2d_53_pad_before_output                         (1,7,7,192) (26)       
------ ---------------------- ---- ---------------------- --------- -------- ------------------------------------------------------ ---------------------- 
63     conv2d_53              52   conv2d                 15744     2496     I: conv2d_53_pad_before_output                         (1,7,7,192) (26)       
                                                                             S: conv2d_53_scratch0                                                         
                                                                             S: conv2d_53_scratch1                                                         
                                                                             W: conv2d_53_weights                                   (192,3,3,1) (183)      
                                                                             W: conv2d_53_bias                                      (192,) (184)           
                                                                             O: conv2d_53_output                                    (1,3,3,192) (27)       
------ ---------------------- ---- ---------------------- --------- -------- ------------------------------------------------------ ---------------------- 
64     conv2d_54              54   conv2d                 96824     10976    I: conv2d_53_output                                    (1,3,3,192) (27)       
                                                                             S: conv2d_54_scratch0                                                         
                                                                             W: conv2d_54_weights                                   (192,1,1,56) (186)     
                                                                             W: conv2d_54_bias                                      (56,) (187)            
                                                                             O: conv2d_54_output                                    (1,3,3,56) (29)        
------ ---------------------- ---- ---------------------- --------- -------- ------------------------------------------------------ ---------------------- 
65     conv2d_55              55   conv2d                 169680    20160    I: conv2d_54_output                                    (1,3,3,56) (29)        
                                                                             S: conv2d_55_scratch0                                                         
                                                                             S: conv2d_55_scratch1                                                         
                                                                             W: conv2d_55_weights                                   (56,1,1,336) (189)     
                                                                             W: conv2d_55_bias                                      (336,) (190)           
                                                                             O: conv2d_55_output                                    (1,3,3,336) (30)       
------ ---------------------- ---- ---------------------- --------- -------- ------------------------------------------------------ ---------------------- 
66     conv2d_56_pad_before   56   pad                    0         0        I: conv2d_55_output                                    (1,3,3,336) (30)       
                                                                             O: conv2d_56_pad_before_output                         (1,5,5,336) (31)       
------ ---------------------- ---- ---------------------- --------- -------- ------------------------------------------------------ ---------------------- 
67     conv2d_56              56   conv2d                 27552     4368     I: conv2d_56_pad_before_output                         (1,5,5,336) (31)       
                                                                             S: conv2d_56_scratch0                                                         
                                                                             S: conv2d_56_scratch1                                                         
                                                                             W: conv2d_56_weights                                   (336,3,3,1) (192)      
                                                                             W: conv2d_56_bias                                      (336,) (193)           
                                                                             O: conv2d_56_output                                    (1,3,3,336) (33)       
------ ---------------------- ---- ---------------------- --------- -------- ------------------------------------------------------ ---------------------- 
68     conv2d_57              57   conv2d                 169400    19040    I: conv2d_56_output                                    (1,3,3,336) (33)       
                                                                             S: conv2d_57_scratch0                                                         
                                                                             W: conv2d_57_weights                                   (336,1,1,56) (195)     
                                                                             W: conv2d_57_bias                                      (56,) (196)            
                                                                             O: conv2d_57_output                                    (1,3,3,56) (34)        
------ ---------------------- ---- ---------------------- --------- -------- ------------------------------------------------------ ---------------------- 
69     eltwise_58             58   eltwise_integer/sum    504       0        I: conv2d_54_output                                    (1,3,3,56) (29)        
                                                                             I: conv2d_57_output                                    (1,3,3,56) (34)        
                                                                             O: eltwise_58_output                                   (1,3,3,56) (36)        
------ ---------------------- ---- ---------------------- --------- -------- ------------------------------------------------------ ---------------------- 
70     conv2d_59              59   conv2d                 169680    20160    I: eltwise_58_output                                   (1,3,3,56) (36)        
                                                                             S: conv2d_59_scratch0                                                         
                                                                             S: conv2d_59_scratch1                                                         
                                                                             W: conv2d_59_weights                                   (56,1,1,336) (198)     
                                                                             W: conv2d_59_bias                                      (336,) (199)           
                                                                             O: conv2d_59_output                                    (1,3,3,336) (37)       
------ ---------------------- ---- ---------------------- --------- -------- ------------------------------------------------------ ---------------------- 
71     conv2d_60_pad_before   60   pad                    0         0        I: conv2d_59_output                                    (1,3,3,336) (37)       
                                                                             O: conv2d_60_pad_before_output                         (1,5,5,336) (38)       
------ ---------------------- ---- ---------------------- --------- -------- ------------------------------------------------------ ---------------------- 
72     conv2d_60              60   conv2d                 27552     4368     I: conv2d_60_pad_before_output                         (1,5,5,336) (38)       
                                                                             S: conv2d_60_scratch0                                                         
                                                                             S: conv2d_60_scratch1                                                         
                                                                             W: conv2d_60_weights                                   (336,3,3,1) (200)      
                                                                             W: conv2d_60_bias                                      (336,) (201)           
                                                                             O: conv2d_60_output                                    (1,3,3,336) (40)       
------ ---------------------- ---- ---------------------- --------- -------- ------------------------------------------------------ ---------------------- 
73     conv2d_61              61   conv2d                 169400    19040    I: conv2d_60_output                                    (1,3,3,336) (40)       
                                                                             S: conv2d_61_scratch0                                                         
                                                                             W: conv2d_61_weights                                   (336,1,1,56) (202)     
                                                                             W: conv2d_61_bias                                      (56,) (203)            
                                                                             O: conv2d_61_output                                    (1,3,3,56) (41)        
------ ---------------------- ---- ---------------------- --------- -------- ------------------------------------------------------ ---------------------- 
74     eltwise_62             62   eltwise_integer/sum    504       0        I: eltwise_58_output                                   (1,3,3,56) (36)        
                                                                             I: conv2d_61_output                                    (1,3,3,56) (41)        
                                                                             O: eltwise_62_output                                   (1,3,3,56) (43)        
------ ---------------------- ---- ---------------------- --------- -------- ------------------------------------------------------ ---------------------- 
75     conv2d_63              63   conv2d                 169680    20160    I: eltwise_62_output                                   (1,3,3,56) (43)        
                                                                             S: conv2d_63_scratch0                                                         
                                                                             S: conv2d_63_scratch1                                                         
                                                                             W: conv2d_63_weights                                   (56,1,1,336) (204)     
                                                                             W: conv2d_63_bias                                      (336,) (205)           
                                                                             O: conv2d_63_output                                    (1,3,3,336) (44)       
------ ---------------------- ---- ---------------------- --------- -------- ------------------------------------------------------ ---------------------- 
76     conv2d_64_pad_before   64   pad                    0         0        I: conv2d_63_output                                    (1,3,3,336) (44)       
                                                                             O: conv2d_64_pad_before_output                         (1,5,5,336) (45)       
------ ---------------------- ---- ---------------------- --------- -------- ------------------------------------------------------ ---------------------- 
77     conv2d_64              64   conv2d                 27552     4368     I: conv2d_64_pad_before_output                         (1,5,5,336) (45)       
                                                                             S: conv2d_64_scratch0                                                         
                                                                             S: conv2d_64_scratch1                                                         
                                                                             W: conv2d_64_weights                                   (336,3,3,1) (206)      
                                                                             W: conv2d_64_bias                                      (336,) (207)           
                                                                             O: conv2d_64_output                                    (1,3,3,336) (47)       
------ ---------------------- ---- ---------------------- --------- -------- ------------------------------------------------------ ---------------------- 
78     conv2d_65              65   conv2d                 338800    38080    I: conv2d_64_output                                    (1,3,3,336) (47)       
                                                                             S: conv2d_65_scratch0                                                         
                                                                             W: conv2d_65_weights                                   (336,1,1,112) (208)    
                                                                             W: conv2d_65_bias                                      (112,) (209)           
                                                                             O: conv2d_65_output                                    (1,3,3,112) (48)       
------ ---------------------- ---- ---------------------- --------- -------- ------------------------------------------------------ ---------------------- 
79     conv2d_66              66   conv2d                 1291520   148480   I: conv2d_65_output                                    (1,3,3,112) (48)       
                                                                             S: conv2d_66_scratch0                                                         
                                                                             S: conv2d_66_scratch1                                                         
                                                                             W: conv2d_66_weights                                   (112,1,1,1280) (210)   
                                                                             W: conv2d_66_bias                                      (1280,) (211)          
                                                                             O: conv2d_66_output                                    (1,3,3,1280) (49)      
------ ---------------------- ---- ---------------------- --------- -------- ------------------------------------------------------ ---------------------- 
80     pool_67                67   pool                   11520     0        I: conv2d_66_output                                    (1,3,3,1280) (49)      
                                                                             O: pool_67_output                                      (1,1,1,1280) (51)      
------ ---------------------- ---- ---------------------- --------- -------- ------------------------------------------------------ ---------------------- 
81     gemm_68                68   dense                  19215     19260    I: pool_67_output                                      (1,1,1,1280) (51)      
                                                                             S: gemm_68_scratch0                                                           
                                                                             W: gemm_68_weights                                     (1280,15) (212)        
                                                                             W: gemm_68_bias                                        (15,) (213)            
                                                                             O: gemm_68_output                                      (1,15) (52)            
------ ---------------------- ---- ---------------------- --------- -------- ------------------------------------------------------ ---------------------- 
82     nl_69                  69   nl                     225       0        I: gemm_68_output                                      (1,15) (52)            
                                                                             S: nl_69_scratch0                                                             
                                                                             O: nl_69_output                                        (1,15) (54)            
------ ---------------------- ---- ---------------------- --------- -------- ------------------------------------------------------ ---------------------- 
83     conversion_70          70   converter              30        0        I: nl_69_output                                        (1,15) (54)            
                                                                             O: conversion_70_output                                (1,15) (55)            
------ ---------------------- ---- ---------------------- --------- -------- ------------------------------------------------------ ---------------------- 



Number of operations per c-layer
------- ------ ---------------------------------- ------------ ------------- --------- ---------- 
c_id    m_id   name (type)                                 #op          type    #param   sparsity 
------- ------ ---------------------------------- ------------ ------------- --------- ---------- 
0       0      conversion_0 (converter)                 55,296    conv_u8_s8           
1       1      conv2d_1 (optimized_conv2d)             995,344    smul_s8_s8       448     0.1875 
2       2      conv2d_2_pad_before (pad)                     0    smul_s8_s8           
3       2      conv2d_2 (conv2d)                       331,792    smul_s8_s8       160     0.0312 
4       3      conv2d_3 (conv2d)                       294,920    smul_s8_s8       136     0.2500 
5       4      conv2d_4 (conv2d)                       884,784    smul_s8_s8       432     0.0486 
6       6      conv2d_6_pad_before (pad)                     0    smul_s8_s8           
7       5      conv2d_6 (conv2d)                       248,880    smul_s8_s8       480     0.0104 
8       7      conv2d_7 (conv2d)                       221,192    smul_s8_s8       392     0.0689 
9       8      conv2d_8 (conv2d)                       221,232    smul_s8_s8       432     0.0139 
10      9      conv2d_9_pad_before (pad)                     0    smul_s8_s8           
11      9      conv2d_9 (conv2d)                       248,880    smul_s8_s8       480     0.0083 
12      10     conv2d_10 (conv2d)                      221,192    smul_s8_s8       392     0.0204 
13      11     eltwise_11 (eltwise_integer/sum)          4,608      op_s8_s8           
14      12     conv2d_12 (conv2d)                      221,232    smul_s8_s8       432     0.0046 
15      14     conv2d_14_pad_before (pad)                    0    smul_s8_s8           
16      13     conv2d_14 (conv2d)                       62,256    smul_s8_s8       480     0.0000 
17      15     conv2d_15 (conv2d)                      110,608    smul_s8_s8       784     0.0128 
18      16     conv2d_16 (conv2d)                      221,280    smul_s8_s8     1,632     0.0092 
19      17     conv2d_17_pad_before (pad)                    0    smul_s8_s8           
20      17     conv2d_17 (conv2d)                      124,512    smul_s8_s8       960     0.0062 
21      18     conv2d_18 (conv2d)                      221,200    smul_s8_s8     1,552     0.0116 
22      19     eltwise_19 (eltwise_integer/sum)          2,304      op_s8_s8           
23      20     conv2d_20 (conv2d)                      221,280    smul_s8_s8     1,632     0.0049 
24      21     conv2d_21_pad_before (pad)                    0    smul_s8_s8           
25      21     conv2d_21 (conv2d)                      124,512    smul_s8_s8       960     0.0062 
26      22     conv2d_22 (conv2d)                      221,200    smul_s8_s8     1,552     0.0142 
27      23     eltwise_23 (eltwise_integer/sum)          2,304      op_s8_s8           
28      24     conv2d_24 (conv2d)                      221,280    smul_s8_s8     1,632     0.0074 
29      26     conv2d_26_pad_before (pad)                    0    smul_s8_s8           
30      25     conv2d_26 (conv2d)                       31,200    smul_s8_s8       960     0.0000 
31      27     conv2d_27 (conv2d)                       82,968    smul_s8_s8     2,328     0.0133 
32      28     conv2d_28 (conv2d)                      124,560    smul_s8_s8     3,600     0.0081 
33      29     conv2d_29_pad_before (pad)                    0    smul_s8_s8           
34      29     conv2d_29 (conv2d)                       46,800    smul_s8_s8     1,440     0.0083 
35      30     conv2d_30 (conv2d)                      124,440    smul_s8_s8     3,480     0.0109 
36      31     eltwise_31 (eltwise_integer/sum)            864      op_s8_s8           
37      32     conv2d_32 (conv2d)                      124,560    smul_s8_s8     3,600     0.0100 
38      33     conv2d_33_pad_before (pad)                    0    smul_s8_s8           
39      33     conv2d_33 (conv2d)                       46,800    smul_s8_s8     1,440     0.0104 
40      34     conv2d_34 (conv2d)                      124,440    smul_s8_s8     3,480     0.0121 
41      35     eltwise_35 (eltwise_integer/sum)            864      op_s8_s8           
42      36     conv2d_36 (conv2d)                      124,560    smul_s8_s8     3,600     0.0094 
43      37     conv2d_37_pad_before (pad)                    0    smul_s8_s8           
44      37     conv2d_37 (conv2d)                       46,800    smul_s8_s8     1,440     0.0076 
45      38     conv2d_38 (conv2d)                      124,440    smul_s8_s8     3,480     0.0124 
46      39     eltwise_39 (eltwise_integer/sum)            864      op_s8_s8           
47      40     conv2d_40 (conv2d)                      124,560    smul_s8_s8     3,600     0.0100 
48      41     conv2d_41_pad_before (pad)                    0    smul_s8_s8           
49      41     conv2d_41 (conv2d)                       46,800    smul_s8_s8     1,440     0.0153 
50      42     conv2d_42 (conv2d)                      165,920    smul_s8_s8     4,640     0.0119 
51      43     conv2d_43 (conv2d)                      221,376    smul_s8_s8     6,336     0.0071 
52      44     conv2d_44_pad_before (pad)                    0    smul_s8_s8           
53      44     conv2d_44 (conv2d)                       62,400    smul_s8_s8     1,920     0.0089 
54      45     conv2d_45 (conv2d)                      221,216    smul_s8_s8     6,176     0.0126 
55      46     eltwise_46 (eltwise_integer/sum)          1,152      op_s8_s8           
56      47     conv2d_47 (conv2d)                      221,376    smul_s8_s8     6,336     0.0095 
57      48     conv2d_48_pad_before (pad)                    0    smul_s8_s8           
58      48     conv2d_48 (conv2d)                       62,400    smul_s8_s8     1,920     0.0078 
59      49     conv2d_49 (conv2d)                      221,216    smul_s8_s8     6,176     0.0073 
60      50     eltwise_50 (eltwise_integer/sum)          1,152      op_s8_s8           
61      51     conv2d_51 (conv2d)                      221,376    smul_s8_s8     6,336     0.0090 
62      53     conv2d_53_pad_before (pad)                    0    smul_s8_s8           
63      52     conv2d_53 (conv2d)                       15,744    smul_s8_s8     1,920     0.0005 
64      54     conv2d_54 (conv2d)                       96,824    smul_s8_s8    10,808     0.0088 
65      55     conv2d_55 (conv2d)                      169,680    smul_s8_s8    19,152     0.0093 
66      56     conv2d_56_pad_before (pad)                    0    smul_s8_s8           
67      56     conv2d_56 (conv2d)                       27,552    smul_s8_s8     3,360     0.0077 
68      57     conv2d_57 (conv2d)                      169,400    smul_s8_s8    18,872     0.0102 
69      58     eltwise_58 (eltwise_integer/sum)            504      op_s8_s8           
70      59     conv2d_59 (conv2d)                      169,680    smul_s8_s8    19,152     0.0073 
71      60     conv2d_60_pad_before (pad)                    0    smul_s8_s8           
72      60     conv2d_60 (conv2d)                       27,552    smul_s8_s8     3,360     0.0077 
73      61     conv2d_61 (conv2d)                      169,400    smul_s8_s8    18,872     0.0113 
74      62     eltwise_62 (eltwise_integer/sum)            504      op_s8_s8           
75      63     conv2d_63 (conv2d)                      169,680    smul_s8_s8    19,152     0.0088 
76      64     conv2d_64_pad_before (pad)                    0    smul_s8_s8           
77      64     conv2d_64 (conv2d)                       27,552    smul_s8_s8     3,360     0.0048 
78      65     conv2d_65 (conv2d)                      338,800    smul_s8_s8    37,744     0.0108 
79      66     conv2d_66 (conv2d)                    1,291,520    smul_s8_s8   144,640     0.0090 
80      67     pool_67 (pool)                           11,520      op_s8_s8           
81      68     gemm_68 (dense)                          19,215    smul_s8_s8    19,215     0.0143 
82      69     nl_69 (nl)                                  225      op_s8_s8           
83      70     conversion_70 (converter)                    30   conv_s8_f32           
------- ------ ---------------------------------- ------------ ------------- --------- ---------- 
total                                               10,762,574                 408,303     0.0099 

Number of operation types
---------------- ------------ ----------- 
operation type              #           % 
---------------- ------------ ----------- 
conv_u8_s8             55,296        0.5% 
smul_s8_s8         10,680,383       99.2% 
op_s8_s8               26,865        0.2% 
conv_s8_f32                30        0.0% 

Complexity report (model)
------ -------------------------------------------- ------------------------- ------------------------- ---------- 
m_id   name                                         c_macc                    c_rom                     c_id       
------ -------------------------------------------- ------------------------- ------------------------- ---------- 
0      serving_default_mobilenetv2_0_35_96_input0   |                  0.5%   |                  0.0%   [0]        
1      conv2d_1                                     ||||||||||||       9.2%   |                  0.1%   [1]        
2      conv2d_2                                     ||||               3.1%   |                  0.0%   [2, 3]     
3      conv2d_3                                     ||||               2.7%   |                  0.0%   [4]        
4      conv2d_4                                     |||||||||||        8.2%   |                  0.1%   [5]        
5      pad_5                                        |||                2.3%   |                  0.1%   [7]        
6      conv2d_6                                     |                  0.0%   |                  0.0%   [6]        
7      conv2d_7                                     |||                2.1%   |                  0.1%   [8]        
8      conv2d_8                                     |||                2.1%   |                  0.1%   [9]        
9      conv2d_9                                     |||                2.3%   |                  0.1%   [10, 11]   
10     conv2d_10                                    |||                2.1%   |                  0.1%   [12]       
11     eltwise_11                                   |                  0.0%   |                  0.0%   [13]       
12     conv2d_12                                    |||                2.1%   |                  0.1%   [14]       
13     pad_13                                       |                  0.6%   |                  0.1%   [16]       
14     conv2d_14                                    |                  0.0%   |                  0.0%   [15]       
15     conv2d_15                                    ||                 1.0%   |                  0.2%   [17]       
16     conv2d_16                                    |||                2.1%   |                  0.4%   [18]       
17     conv2d_17                                    ||                 1.2%   |                  0.3%   [19, 20]   
18     conv2d_18                                    |||                2.1%   |                  0.4%   [21]       
19     eltwise_19                                   |                  0.0%   |                  0.0%   [22]       
20     conv2d_20                                    |||                2.1%   |                  0.4%   [23]       
21     conv2d_21                                    ||                 1.2%   |                  0.3%   [24, 25]   
22     conv2d_22                                    |||                2.1%   |                  0.4%   [26]       
23     eltwise_23                                   |                  0.0%   |                  0.0%   [27]       
24     conv2d_24                                    |||                2.1%   |                  0.4%   [28]       
25     pad_25                                       |                  0.3%   |                  0.3%   [30]       
26     conv2d_26                                    |                  0.0%   |                  0.0%   [29]       
27     conv2d_27                                    |                  0.8%   |                  0.6%   [31]       
28     conv2d_28                                    ||                 1.2%   |                  0.9%   [32]       
29     conv2d_29                                    |                  0.4%   |                  0.4%   [33, 34]   
30     conv2d_30                                    ||                 1.2%   |                  0.8%   [35]       
31     eltwise_31                                   |                  0.0%   |                  0.0%   [36]       
32     conv2d_32                                    ||                 1.2%   |                  0.9%   [37]       
33     conv2d_33                                    |                  0.4%   |                  0.4%   [38, 39]   
34     conv2d_34                                    ||                 1.2%   |                  0.8%   [40]       
35     eltwise_35                                   |                  0.0%   |                  0.0%   [41]       
36     conv2d_36                                    ||                 1.2%   |                  0.9%   [42]       
37     conv2d_37                                    |                  0.4%   |                  0.4%   [43, 44]   
38     conv2d_38                                    ||                 1.2%   |                  0.8%   [45]       
39     eltwise_39                                   |                  0.0%   |                  0.0%   [46]       
40     conv2d_40                                    ||                 1.2%   |                  0.9%   [47]       
41     conv2d_41                                    |                  0.4%   |                  0.4%   [48, 49]   
42     conv2d_42                                    ||                 1.5%   |                  1.1%   [50]       
43     conv2d_43                                    |||                2.1%   |                  1.6%   [51]       
44     conv2d_44                                    |                  0.6%   |                  0.6%   [52, 53]   
45     conv2d_45                                    |||                2.1%   |                  1.5%   [54]       
46     eltwise_46                                   |                  0.0%   |                  0.0%   [55]       
47     conv2d_47                                    |||                2.1%   |                  1.6%   [56]       
48     conv2d_48                                    |                  0.6%   |                  0.6%   [57, 58]   
49     conv2d_49                                    |||                2.1%   |                  1.5%   [59]       
50     eltwise_50                                   |                  0.0%   |                  0.0%   [60]       
51     conv2d_51                                    |||                2.1%   |                  1.6%   [61]       
52     pad_52                                       |                  0.1%   |                  0.6%   [63]       
53     conv2d_53                                    |                  0.0%   |                  0.0%   [62]       
54     conv2d_54                                    ||                 0.9%   ||                 2.6%   [64]       
55     conv2d_55                                    ||                 1.6%   |||                4.7%   [65]       
56     conv2d_56                                    |                  0.3%   |                  1.0%   [66, 67]   
57     conv2d_57                                    ||                 1.6%   ||                 4.4%   [68]       
58     eltwise_58                                   |                  0.0%   |                  0.0%   [69]       
59     conv2d_59                                    ||                 1.6%   |||                4.7%   [70]       
60     conv2d_60                                    |                  0.3%   |                  1.0%   [71, 72]   
61     conv2d_61                                    ||                 1.6%   ||                 4.4%   [73]       
62     eltwise_62                                   |                  0.0%   |                  0.0%   [74]       
63     conv2d_63                                    ||                 1.6%   |||                4.7%   [75]       
64     conv2d_64                                    |                  0.3%   |                  1.0%   [76, 77]   
65     conv2d_65                                    ||||               3.1%   ||||               8.9%   [78]       
66     conv2d_66                                    ||||||||||||||||  12.0%   ||||||||||||||||  34.6%   [79]       
67     pool_67                                      |                  0.1%   |                  0.0%   [80]       
68     MobileNetV2_dense_MatMul                     |                  0.2%   ||                 4.5%   [81]       
69     nl_69                                        |                  0.0%   |                  0.0%   [82]       
70     conversion_70                                |                  0.0%   |                  0.0%   [83]       
------ -------------------------------------------- ------------------------- ------------------------- ---------- 
macc=10,762,574 weights=429,468 act=129,536 ram_io=0

Generated files (7)
--------------------------------------------------------------- 
C:\Users\al\.stm32cubemx\network_output\network_config.h        
C:\Users\al\.stm32cubemx\network_output\network.h               
C:\Users\al\.stm32cubemx\network_output\network.c               
C:\Users\al\.stm32cubemx\network_output\network_data_params.h   
C:\Users\al\.stm32cubemx\network_output\network_data_params.c   
C:\Users\al\.stm32cubemx\network_output\network_data.h          
C:\Users\al\.stm32cubemx\network_output\network_data.c          
